…
I0812 09:15:25.741109 31060 net.cpp:322] The NetState phase (0) differed from the phase (1) specified by a rule in layer accuracy
I0812 09:15:25.741436 31060 net.cpp:58] Initializing net from parameters: 
name: "AlexNet"
state {
  phase: TRAIN
  level: 0
  stage: ""
}
layer {
  name: "data"
  type: "Data"
  top: "data"
  top: "label"
  include {
    phase: TRAIN
  }
  transform_param {
    mirror: true
    crop_size: 227
    mean_file: "imagenet_mean.binaryproto"
  }
  data_param {
    source: "/data/ilsvrc10_train_lmdb"
    batch_size: 128
    backend: LMDB
  }
}
layer {
  name: "conv1"
  type: "Convolution"
  bottom: "data"
  top: "conv1"
  param {
    lr_mult: 1
    decay_mult: 1
  }
  param {
    lr_mult: 2
    decay_mult: 0
  }
  convolution_param {
    num_output: 96
    kernel_size: 11
    stride: 4
    weight_filler {
      type: "gaussian"
      std: 0.01
    }
    bias_filler {
      type: "constant"
      value: 0
    }
  }
}
layer {
  name: "relu1"
  type: "ReLU"
  bottom: "conv1"
  top: "conv1"
}
layer {
  name: "norm1"
  type: "LRN"
  bottom: "conv1"
  top: "norm1"
  lrn_param {
    local_size: 5
    alpha: 0.0001
    beta: 0.75
  }
}
layer {
  name: "pool1"
  type: "Pooling"
  bottom: "norm1"
  top: "pool1"
  pooling_param {
    pool: MAX
    kernel_size: 3
    stride: 2
  }
}
layer {
  name: "conv2"
  type: "Convolution"
  bottom: "pool1"
  top: "conv2"
  param {
    lr_mult: 1
    decay_mult: 1
  }
  param {
    lr_mult: 2
    decay_mult: 0
  }
  convolution_param {
    num_output: 256
    pad: 2
    kernel_size: 5
    group: 2
    weight_filler {
      type: "gaussian"
      std: 0.01
    }
    bias_filler {
      type: "constant"
      value: 0.1
    }
  }
}
layer {
  name: "relu2"
  type: "ReLU"
  bottom: "conv2"
  top: "conv2"
}
layer {
  name: "norm2"
  type: "LRN"
  bottom: "conv2"
  top: "norm2"
  lrn_param {
    local_size: 5
    alpha: 0.0001
    beta: 0.75
  }
}
layer {
  name: "pool2"
  type: "Pooling"
  bottom: "norm2"
  top: "pool2"
  pooling_param {
    pool: MAX
    kernel_size: 3
    stride: 2
  }
}
layer {
  name: "conv3"
  type: "Convolution"
  bottom: "pool2"
  top: "conv3"
  param {
    lr_mult: 1
    decay_mult: 1
  }
  param {
    lr_mult: 2
    decay_mult: 0
  }
  convolution_param {
    num_output: 384
    pad: 1
    kernel_size: 3
    weight_filler {
      type: "gaussian"
      std: 0.01
    }
    bias_filler {
      type: "constant"
      value: 0
    }
  }
}
layer {
  name: "relu3"
  type: "ReLU"
  bottom: "conv3"
  top: "conv3"
}
layer {
  name: "conv4"
  type: "Convolution"
  bottom: "conv3"
  top: "conv4"
  param {
    lr_mult: 1
    decay_mult: 1
  }
  param {
    lr_mult: 2
    decay_mult: 0
  }
  convolution_param {
    num_output: 384
    pad: 1
    kernel_size: 3
    group: 2
    weight_filler {
      type: "gaussian"
      std: 0.01
    }
    bias_filler {
      type: "constant"
      value: 0.1
    }
  }
}
layer {
  name: "relu4"
  type: "ReLU"
  bottom: "conv4"
  top: "conv4"
}
layer {
  name: "conv5"
  type: "Convolution"
  bottom: "conv4"
  top: "conv5"
  param {
    lr_mult: 1
    decay_mult: 1
  }
  param {
    lr_mult: 2
    decay_mult: 0
  }
  convolution_param {
    num_output: 256
    pad: 1
    kernel_size: 3
    group: 2
    weight_filler {
      type: "gaussian"
      std: 0.01
    }
    bias_filler {
      type: "constant"
      value: 0.1
    }
  }
}
layer {
  name: "relu5"
  type: "ReLU"
  bottom: "conv5"
  top: "conv5"
}
layer {
  name: "pool5"
  type: "Pooling"
  bottom: "conv5"
  top: "pool5"
  pooling_param {
    pool: MAX
    kernel_size: 3
    stride: 2
  }
}
layer {
  name: "fc6"
  type: "InnerProduct"
  bottom: "pool5"
  top: "fc6"
  param {
    lr_mult: 1
    decay_mult: 1
  }
  param {
    lr_mult: 2
    decay_mult: 0
  }
  inner_product_param {
    num_output: 4096
    weight_filler {
      type: "gaussian"
      std: 0.005
    }
    bias_filler {
      type: "constant"
      value: 0.1
    }
  }
}
layer {
  name: "relu6"
  type: "ReLU"
  bottom: "fc6"
  top: "fc6"
}
layer {
  name: "drop6"
  type: "Dropout"
  bottom: "fc6"
  top: "fc6"
  dropout_param {
    dropout_ratio: 0.5
  }
}
layer {
  name: "fc7"
  type: "InnerProduct"
  bottom: "fc6"
  top: "fc7"
  param {
    lr_mult: 1
    decay_mult: 1
  }
  param {
    lr_mult: 2
    decay_mult: 0
  }
  inner_product_param {
    num_output: 4096
    weight_filler {
      type: "gaussian"
      std: 0.005
    }
    bias_filler {
      type: "constant"
      value: 0.1
    }
  }
}
layer {
  name: "relu7"
  type: "ReLU"
  bottom: "fc7"
  top: "fc7"
}
layer {
  name: "drop7"
  type: "Dropout"
  bottom: "fc7"
  top: "fc7"
  dropout_param {
    dropout_ratio: 0.5
  }
}
layer {
  name: "fc8"
  type: "InnerProduct"
  bottom: "fc7"
  top: "fc8"
  param {
    lr_mult: 1
    decay_mult: 1
  }
  param {
    lr_mult: 2
    decay_mult: 0
  }
  inner_product_param {
    num_output: 1000
    weight_filler {
      type: "gaussian"
      std: 0.01
    }
    bias_filler {
      type: "constant"
      value: 0
    }
  }
}
layer {
  name: "loss"
  type: "SoftmaxWithLoss"
  bottom: "fc8"
  bottom: "label"
  top: "loss"
}
I0812 09:15:25.741610 31060 layer_factory.hpp:77] Creating layer data
I0812 09:15:25.742247 31060 net.cpp:100] Creating Layer data
I0812 09:15:25.742269 31060 net.cpp:408] data -> data
I0812 09:15:25.742302 31060 net.cpp:408] data -> label
I0812 09:15:25.742318 31060 data_transformer.cpp:25] Loading mean file from: imagenet_mean.binaryproto
I0812 09:15:25.744529 31081 db_lmdb.cpp:35] Opened lmdb /data/ilsvrc10_train_lmdb
I0812 09:15:25.757659 31060 data_layer.cpp:41] output data size: 128,3,227,227
I0812 09:15:25.936301 31060 net.cpp:150] Setting up data
I0812 09:15:25.936362 31060 net.cpp:157] Top shape: 128 3 227 227 (19787136)
I0812 09:15:25.936372 31060 net.cpp:157] Top shape: 128 (128)
I0812 09:15:25.936377 31060 net.cpp:165] Memory required for data: 79149056
I0812 09:15:25.936393 31060 layer_factory.hpp:77] Creating layer conv1
I0812 09:15:25.936430 31060 net.cpp:100] Creating Layer conv1
I0812 09:15:25.936439 31060 net.cpp:434] conv1 <- data
I0812 09:15:25.936458 31060 net.cpp:408] conv1 -> conv1
I0812 09:15:25.950680 31082 blocking_queue.cpp:50] Waiting for data
I0812 09:15:26.136667 31060 net.cpp:150] Setting up conv1
I0812 09:15:26.136725 31060 net.cpp:157] Top shape: 128 96 55 55 (37171200)
I0812 09:15:26.136732 31060 net.cpp:165] Memory required for data: 227833856
I0812 09:15:26.136759 31060 layer_factory.hpp:77] Creating layer relu1
I0812 09:15:26.136780 31060 net.cpp:100] Creating Layer relu1
I0812 09:15:26.136788 31060 net.cpp:434] relu1 <- conv1
I0812 09:15:26.136797 31060 net.cpp:395] relu1 -> conv1 (in-place)
I0812 09:15:26.137001 31060 net.cpp:150] Setting up relu1
I0812 09:15:26.137017 31060 net.cpp:157] Top shape: 128 96 55 55 (37171200)
I0812 09:15:26.137022 31060 net.cpp:165] Memory required for data: 376518656
I0812 09:15:26.137028 31060 layer_factory.hpp:77] Creating layer norm1
I0812 09:15:26.137043 31060 net.cpp:100] Creating Layer norm1
I0812 09:15:26.137048 31060 net.cpp:434] norm1 <- conv1
I0812 09:15:26.137056 31060 net.cpp:408] norm1 -> norm1
I0812 09:15:26.137470 31060 net.cpp:150] Setting up norm1
I0812 09:15:26.137490 31060 net.cpp:157] Top shape: 128 96 55 55 (37171200)
I0812 09:15:26.137496 31060 net.cpp:165] Memory required for data: 525203456
I0812 09:15:26.137502 31060 layer_factory.hpp:77] Creating layer pool1
I0812 09:15:26.137526 31060 net.cpp:100] Creating Layer pool1
I0812 09:15:26.137543 31060 net.cpp:434] pool1 <- norm1
I0812 09:15:26.137552 31060 net.cpp:408] pool1 -> pool1
I0812 09:15:26.137616 31060 net.cpp:150] Setting up pool1
I0812 09:15:26.137630 31060 net.cpp:157] Top shape: 128 96 27 27 (8957952)
I0812 09:15:26.137636 31060 net.cpp:165] Memory required for data: 561035264
I0812 09:15:26.137641 31060 layer_factory.hpp:77] Creating layer conv2
I0812 09:15:26.137660 31060 net.cpp:100] Creating Layer conv2
I0812 09:15:26.137665 31060 net.cpp:434] conv2 <- pool1
I0812 09:15:26.137672 31060 net.cpp:408] conv2 -> conv2
I0812 09:15:26.150370 31060 net.cpp:150] Setting up conv2
I0812 09:15:26.150394 31060 net.cpp:157] Top shape: 128 256 27 27 (23887872)
I0812 09:15:26.150400 31060 net.cpp:165] Memory required for data: 656586752
I0812 09:15:26.150414 31060 layer_factory.hpp:77] Creating layer relu2
I0812 09:15:26.150424 31060 net.cpp:100] Creating Layer relu2
I0812 09:15:26.150434 31060 net.cpp:434] relu2 <- conv2
I0812 09:15:26.150441 31060 net.cpp:395] relu2 -> conv2 (in-place)
I0812 09:15:26.150625 31060 net.cpp:150] Setting up relu2
I0812 09:15:26.150640 31060 net.cpp:157] Top shape: 128 256 27 27 (23887872)
I0812 09:15:26.150646 31060 net.cpp:165] Memory required for data: 752138240
I0812 09:15:26.150651 31060 layer_factory.hpp:77] Creating layer norm2
I0812 09:15:26.150660 31060 net.cpp:100] Creating Layer norm2
I0812 09:15:26.150666 31060 net.cpp:434] norm2 <- conv2
I0812 09:15:26.150673 31060 net.cpp:408] norm2 -> norm2
I0812 09:15:26.151060 31060 net.cpp:150] Setting up norm2
I0812 09:15:26.151080 31060 net.cpp:157] Top shape: 128 256 27 27 (23887872)
I0812 09:15:26.151087 31060 net.cpp:165] Memory required for data: 847689728
I0812 09:15:26.151093 31060 layer_factory.hpp:77] Creating layer pool2
I0812 09:15:26.151103 31060 net.cpp:100] Creating Layer pool2
I0812 09:15:26.151108 31060 net.cpp:434] pool2 <- norm2
I0812 09:15:26.151116 31060 net.cpp:408] pool2 -> pool2
I0812 09:15:26.151159 31060 net.cpp:150] Setting up pool2
I0812 09:15:26.151166 31060 net.cpp:157] Top shape: 128 256 13 13 (5537792)
I0812 09:15:26.151170 31060 net.cpp:165] Memory required for data: 869840896
I0812 09:15:26.151175 31060 layer_factory.hpp:77] Creating layer conv3
I0812 09:15:26.151188 31060 net.cpp:100] Creating Layer conv3
I0812 09:15:26.151193 31060 net.cpp:434] conv3 <- pool2
I0812 09:15:26.151201 31060 net.cpp:408] conv3 -> conv3
I0812 09:15:26.180711 31060 net.cpp:150] Setting up conv3
I0812 09:15:26.180735 31060 net.cpp:157] Top shape: 128 384 13 13 (8306688)
I0812 09:15:26.180742 31060 net.cpp:165] Memory required for data: 903067648
I0812 09:15:26.180754 31060 layer_factory.hpp:77] Creating layer relu3
I0812 09:15:26.180765 31060 net.cpp:100] Creating Layer relu3
I0812 09:15:26.180773 31060 net.cpp:434] relu3 <- conv3
I0812 09:15:26.180781 31060 net.cpp:395] relu3 -> conv3 (in-place)
I0812 09:15:26.181164 31060 net.cpp:150] Setting up relu3
I0812 09:15:26.181191 31060 net.cpp:157] Top shape: 128 384 13 13 (8306688)
I0812 09:15:26.181197 31060 net.cpp:165] Memory required for data: 936294400
I0812 09:15:26.181203 31060 layer_factory.hpp:77] Creating layer conv4
I0812 09:15:26.181219 31060 net.cpp:100] Creating Layer conv4
I0812 09:15:26.181226 31060 net.cpp:434] conv4 <- conv3
I0812 09:15:26.181237 31060 net.cpp:408] conv4 -> conv4
I0812 09:15:26.204804 31060 net.cpp:150] Setting up conv4
I0812 09:15:26.204829 31060 net.cpp:157] Top shape: 128 384 13 13 (8306688)
I0812 09:15:26.204836 31060 net.cpp:165] Memory required for data: 969521152
I0812 09:15:26.204845 31060 layer_factory.hpp:77] Creating layer relu4
I0812 09:15:26.204855 31060 net.cpp:100] Creating Layer relu4
I0812 09:15:26.204861 31060 net.cpp:434] relu4 <- conv4
I0812 09:15:26.204870 31060 net.cpp:395] relu4 -> conv4 (in-place)
I0812 09:15:26.205066 31060 net.cpp:150] Setting up relu4
I0812 09:15:26.205082 31060 net.cpp:157] Top shape: 128 384 13 13 (8306688)
I0812 09:15:26.205087 31060 net.cpp:165] Memory required for data: 1002747904
I0812 09:15:26.205092 31060 layer_factory.hpp:77] Creating layer conv5
I0812 09:15:26.205122 31060 net.cpp:100] Creating Layer conv5
I0812 09:15:26.205137 31060 net.cpp:434] conv5 <- conv4
I0812 09:15:26.205148 31060 net.cpp:408] conv5 -> conv5
I0812 09:15:26.221982 31060 net.cpp:150] Setting up conv5
I0812 09:15:26.222005 31060 net.cpp:157] Top shape: 128 256 13 13 (5537792)
I0812 09:15:26.222012 31060 net.cpp:165] Memory required for data: 1024899072
I0812 09:15:26.222024 31060 layer_factory.hpp:77] Creating layer relu5
I0812 09:15:26.222038 31060 net.cpp:100] Creating Layer relu5
I0812 09:15:26.222045 31060 net.cpp:434] relu5 <- conv5
I0812 09:15:26.222053 31060 net.cpp:395] relu5 -> conv5 (in-place)
I0812 09:15:26.222251 31060 net.cpp:150] Setting up relu5
I0812 09:15:26.222267 31060 net.cpp:157] Top shape: 128 256 13 13 (5537792)
I0812 09:15:26.222272 31060 net.cpp:165] Memory required for data: 1047050240
I0812 09:15:26.222277 31060 layer_factory.hpp:77] Creating layer pool5
I0812 09:15:26.222285 31060 net.cpp:100] Creating Layer pool5
I0812 09:15:26.222291 31060 net.cpp:434] pool5 <- conv5
I0812 09:15:26.222301 31060 net.cpp:408] pool5 -> pool5
I0812 09:15:26.222350 31060 net.cpp:150] Setting up pool5
I0812 09:15:26.222362 31060 net.cpp:157] Top shape: 128 256 6 6 (1179648)
I0812 09:15:26.222367 31060 net.cpp:165] Memory required for data: 1051768832
I0812 09:15:26.222371 31060 layer_factory.hpp:77] Creating layer fc6
I0812 09:15:26.222390 31060 net.cpp:100] Creating Layer fc6
I0812 09:15:26.222398 31060 net.cpp:434] fc6 <- pool5
I0812 09:15:26.222407 31060 net.cpp:408] fc6 -> fc6
I0812 09:15:27.199033 31060 net.cpp:150] Setting up fc6
I0812 09:15:27.199081 31060 net.cpp:157] Top shape: 128 4096 (524288)
I0812 09:15:27.199086 31060 net.cpp:165] Memory required for data: 1053865984
I0812 09:15:27.199100 31060 layer_factory.hpp:77] Creating layer relu6
I0812 09:15:27.199117 31060 net.cpp:100] Creating Layer relu6
I0812 09:15:27.199125 31060 net.cpp:434] relu6 <- fc6
I0812 09:15:27.199132 31060 net.cpp:395] relu6 -> fc6 (in-place)
I0812 09:15:27.199672 31060 net.cpp:150] Setting up relu6
I0812 09:15:27.199687 31060 net.cpp:157] Top shape: 128 4096 (524288)
I0812 09:15:27.199692 31060 net.cpp:165] Memory required for data: 1055963136
I0812 09:15:27.199695 31060 layer_factory.hpp:77] Creating layer drop6
I0812 09:15:27.199707 31060 net.cpp:100] Creating Layer drop6
I0812 09:15:27.199710 31060 net.cpp:434] drop6 <- fc6
I0812 09:15:27.199717 31060 net.cpp:395] drop6 -> fc6 (in-place)
I0812 09:15:27.199755 31060 net.cpp:150] Setting up drop6
I0812 09:15:27.199762 31060 net.cpp:157] Top shape: 128 4096 (524288)
I0812 09:15:27.199765 31060 net.cpp:165] Memory required for data: 1058060288
I0812 09:15:27.199769 31060 layer_factory.hpp:77] Creating layer fc7
I0812 09:15:27.199779 31060 net.cpp:100] Creating Layer fc7
I0812 09:15:27.199782 31060 net.cpp:434] fc7 <- fc6
I0812 09:15:27.199792 31060 net.cpp:408] fc7 -> fc7
I0812 09:15:27.611786 31060 net.cpp:150] Setting up fc7
I0812 09:15:27.611834 31060 net.cpp:157] Top shape: 128 4096 (524288)
I0812 09:15:27.611838 31060 net.cpp:165] Memory required for data: 1060157440
I0812 09:15:27.611850 31060 layer_factory.hpp:77] Creating layer relu7
I0812 09:15:27.611871 31060 net.cpp:100] Creating Layer relu7
I0812 09:15:27.611878 31060 net.cpp:434] relu7 <- fc7
I0812 09:15:27.611886 31060 net.cpp:395] relu7 -> fc7 (in-place)
I0812 09:15:27.612118 31060 net.cpp:150] Setting up relu7
I0812 09:15:27.612131 31060 net.cpp:157] Top shape: 128 4096 (524288)
I0812 09:15:27.612136 31060 net.cpp:165] Memory required for data: 1062254592
I0812 09:15:27.612140 31060 layer_factory.hpp:77] Creating layer drop7
I0812 09:15:27.612151 31060 net.cpp:100] Creating Layer drop7
I0812 09:15:27.612155 31060 net.cpp:434] drop7 <- fc7
I0812 09:15:27.612160 31060 net.cpp:395] drop7 -> fc7 (in-place)
I0812 09:15:27.612185 31060 net.cpp:150] Setting up drop7
I0812 09:15:27.612191 31060 net.cpp:157] Top shape: 128 4096 (524288)
I0812 09:15:27.612195 31060 net.cpp:165] Memory required for data: 1064351744
I0812 09:15:27.612200 31060 layer_factory.hpp:77] Creating layer fc8
I0812 09:15:27.612215 31060 net.cpp:100] Creating Layer fc8
I0812 09:15:27.612231 31060 net.cpp:434] fc8 <- fc7
I0812 09:15:27.612239 31060 net.cpp:408] fc8 -> fc8
I0812 09:15:27.712244 31060 net.cpp:150] Setting up fc8
I0812 09:15:27.712272 31060 net.cpp:157] Top shape: 128 1000 (128000)
I0812 09:15:27.712276 31060 net.cpp:165] Memory required for data: 1064863744
I0812 09:15:27.712286 31060 layer_factory.hpp:77] Creating layer loss
I0812 09:15:27.712299 31060 net.cpp:100] Creating Layer loss
I0812 09:15:27.712304 31060 net.cpp:434] loss <- fc8
I0812 09:15:27.712311 31060 net.cpp:434] loss <- label
I0812 09:15:27.712321 31060 net.cpp:408] loss -> loss
I0812 09:15:27.712337 31060 layer_factory.hpp:77] Creating layer loss
…
I0812 09:15:27.714501 31060 solver.cpp:181] Creating test net (#0) specified by net file: train_val.prototxt
I0812 09:15:27.714572 31060 net.cpp:322] The NetState phase (1) differed from the phase (0) specified by a rule in layer data
I0812 09:15:27.714843 31060 net.cpp:58] Initializing net from parameters: 
name: "AlexNet"
state {
  phase: TEST
}
layer {
  name: "data"
  type: "Data"
  top: "data"
  top: "label"
  include {
    phase: TEST
  }
  transform_param {
    mirror: false
    crop_size: 227
    mean_file: "imagenet_mean.binaryproto"
  }
  data_param {
    source: "/data/ilsvrc10_val_lmdb"
    batch_size: 50
    backend: LMDB
  }
}
layer {
  name: "conv1"
  type: "Convolution"
  bottom: "data"
  top: "conv1"
  param {
    lr_mult: 1
    decay_mult: 1
  }
  param {
    lr_mult: 2
    decay_mult: 0
  }
  convolution_param {
    num_output: 96
    kernel_size: 11
    stride: 4
    weight_filler {
      type: "gaussian"
      std: 0.01
    }
    bias_filler {
      type: "constant"
      value: 0
    }
  }
}
layer {
  name: "relu1"
  type: "ReLU"
  bottom: "conv1"
  top: "conv1"
}
layer {
  name: "norm1"
  type: "LRN"
  bottom: "conv1"
  top: "norm1"
  lrn_param {
    local_size: 5
    alpha: 0.0001
    beta: 0.75
  }
}
layer {
  name: "pool1"
  type: "Pooling"
  bottom: "norm1"
  top: "pool1"
  pooling_param {
    pool: MAX
    kernel_size: 3
    stride: 2
  }
}
layer {
  name: "conv2"
  type: "Convolution"
  bottom: "pool1"
  top: "conv2"
  param {
    lr_mult: 1
    decay_mult: 1
  }
  param {
    lr_mult: 2
    decay_mult: 0
  }
  convolution_param {
    num_output: 256
    pad: 2
    kernel_size: 5
    group: 2
    weight_filler {
      type: "gaussian"
      std: 0.01
    }
    bias_filler {
      type: "constant"
      value: 0.1
    }
  }
}
layer {
  name: "relu2"
  type: "ReLU"
  bottom: "conv2"
  top: "conv2"
}
layer {
  name: "norm2"
  type: "LRN"
  bottom: "conv2"
  top: "norm2"
  lrn_param {
    local_size: 5
    alpha: 0.0001
    beta: 0.75
  }
}
layer {
  name: "pool2"
  type: "Pooling"
  bottom: "norm2"
  top: "pool2"
  pooling_param {
    pool: MAX
    kernel_size: 3
    stride: 2
  }
}
layer {
  name: "conv3"
  type: "Convolution"
  bottom: "pool2"
  top: "conv3"
  param {
    lr_mult: 1
    decay_mult: 1
  }
  param {
    lr_mult: 2
    decay_mult: 0
  }
  convolution_param {
    num_output: 384
    pad: 1
    kernel_size: 3
    weight_filler {
      type: "gaussian"
      std: 0.01
    }
    bias_filler {
      type: "constant"
      value: 0
    }
  }
}
layer {
  name: "relu3"
  type: "ReLU"
  bottom: "conv3"
  top: "conv3"
}
layer {
  name: "conv4"
  type: "Convolution"
  bottom: "conv3"
  top: "conv4"
  param {
    lr_mult: 1
    decay_mult: 1
  }
  param {
    lr_mult: 2
    decay_mult: 0
  }
  convolution_param {
    num_output: 384
    pad: 1
    kernel_size: 3
    group: 2
    weight_filler {
      type: "gaussian"
      std: 0.01
    }
    bias_filler {
      type: "constant"
      value: 0.1
    }
  }
}
layer {
  name: "relu4"
  type: "ReLU"
  bottom: "conv4"
  top: "conv4"
}
layer {
  name: "conv5"
  type: "Convolution"
  bottom: "conv4"
  top: "conv5"
  param {
    lr_mult: 1
    decay_mult: 1
  }
  param {
    lr_mult: 2
    decay_mult: 0
  }
  convolution_param {
    num_output: 256
    pad: 1
    kernel_size: 3
    group: 2
    weight_filler {
      type: "gaussian"
      std: 0.01
    }
    bias_filler {
      type: "constant"
      value: 0.1
    }
  }
}
layer {
  name: "relu5"
  type: "ReLU"
  bottom: "conv5"
  top: "conv5"
}
layer {
  name: "pool5"
  type: "Pooling"
  bottom: "conv5"
  top: "pool5"
  pooling_param {
    pool: MAX
    kernel_size: 3
    stride: 2
  }
}
layer {
  name: "fc6"
  type: "InnerProduct"
  bottom: "pool5"
  top: "fc6"
  param {
    lr_mult: 1
    decay_mult: 1
  }
  param {
    lr_mult: 2
    decay_mult: 0
  }
  inner_product_param {
    num_output: 4096
    weight_filler {
      type: "gaussian"
      std: 0.005
    }
    bias_filler {
      type: "constant"
      value: 0.1
    }
  }
}
layer {
  name: "relu6"
  type: "ReLU"
  bottom: "fc6"
  top: "fc6"
}
layer {
  name: "drop6"
  type: "Dropout"
  bottom: "fc6"
  top: "fc6"
  dropout_param {
    dropout_ratio: 0.5
  }
}
layer {
  name: "fc7"
  type: "InnerProduct"
  bottom: "fc6"
  top: "fc7"
  param {
    lr_mult: 1
    decay_mult: 1
  }
  param {
    lr_mult: 2
    decay_mult: 0
  }
  inner_product_param {
    num_output: 4096
    weight_filler {
      type: "gaussian"
      std: 0.005
    }
    bias_filler {
      type: "constant"
      value: 0.1
    }
  }
}
layer {
  name: "relu7"
  type: "ReLU"
  bottom: "fc7"
  top: "fc7"
}
layer {
  name: "drop7"
  type: "Dropout"
  bottom: "fc7"
  top: "fc7"
  dropout_param {
    dropout_ratio: 0.5
  }
}
layer {
  name: "fc8"
  type: "InnerProduct"
  bottom: "fc7"
  top: "fc8"
  param {
    lr_mult: 1
    decay_mult: 1
  }
  param {
    lr_mult: 2
    decay_mult: 0
  }
  inner_product_param {
    num_output: 1000
    weight_filler {
      type: "gaussian"
      std: 0.01
    }
    bias_filler {
      type: "constant"
      value: 0
    }
  }
}
layer {
  name: "accuracy"
  type: "Accuracy"
  bottom: "fc8"
  bottom: "label"
  top: "accuracy"
  include {
    phase: TEST
  }
}
layer {
  name: "loss"
  type: "SoftmaxWithLoss"
  bottom: "fc8"
  bottom: "label"
  top: "loss"
}
I0812 09:15:27.715042 31060 layer_factory.hpp:77] Creating layer data
I0812 09:15:27.715142 31060 net.cpp:100] Creating Layer data
I0812 09:15:27.715152 31060 net.cpp:408] data -> data
I0812 09:15:27.715162 31060 net.cpp:408] data -> label
I0812 09:15:27.715170 31060 data_transformer.cpp:25] Loading mean file from: imagenet_mean.binaryproto
I0812 09:15:27.717748 31083 db_lmdb.cpp:35] Opened lmdb /data/ilsvrc10_val_lmdb
I0812 09:15:27.718823 31060 data_layer.cpp:41] output data size: 50,3,227,227
I0812 09:15:27.800498 31060 net.cpp:150] Setting up data
I0812 09:15:27.800552 31060 net.cpp:157] Top shape: 50 3 227 227 (7729350)
I0812 09:15:27.800565 31060 net.cpp:157] Top shape: 50 (50)
I0812 09:15:27.800571 31060 net.cpp:165] Memory required for data: 30917600
I0812 09:15:27.800583 31060 layer_factory.hpp:77] Creating layer label_data_1_split
I0812 09:15:27.800611 31060 net.cpp:100] Creating Layer label_data_1_split
I0812 09:15:27.800621 31060 net.cpp:434] label_data_1_split <- label
I0812 09:15:27.800633 31060 net.cpp:408] label_data_1_split -> label_data_1_split_0
I0812 09:15:27.800653 31060 net.cpp:408] label_data_1_split -> label_data_1_split_1
I0812 09:15:27.800808 31060 net.cpp:150] Setting up label_data_1_split
I0812 09:15:27.800827 31060 net.cpp:157] Top shape: 50 (50)
I0812 09:15:27.800834 31060 net.cpp:157] Top shape: 50 (50)
I0812 09:15:27.800842 31060 net.cpp:165] Memory required for data: 30918000
I0812 09:15:27.800848 31060 layer_factory.hpp:77] Creating layer conv1
I0812 09:15:27.800871 31060 net.cpp:100] Creating Layer conv1
I0812 09:15:27.800889 31060 net.cpp:434] conv1 <- data
I0812 09:15:27.800902 31060 net.cpp:408] conv1 -> conv1
I0812 09:15:27.808413 31060 net.cpp:150] Setting up conv1
I0812 09:15:27.808451 31060 net.cpp:157] Top shape: 50 96 55 55 (14520000)
I0812 09:15:27.808460 31060 net.cpp:165] Memory required for data: 88998000
I0812 09:15:27.808482 31060 layer_factory.hpp:77] Creating layer relu1
I0812 09:15:27.808500 31060 net.cpp:100] Creating Layer relu1
I0812 09:15:27.808506 31060 net.cpp:434] relu1 <- conv1
I0812 09:15:27.808517 31060 net.cpp:395] relu1 -> conv1 (in-place)
I0812 09:15:27.808799 31060 net.cpp:150] Setting up relu1
I0812 09:15:27.808817 31060 net.cpp:157] Top shape: 50 96 55 55 (14520000)
I0812 09:15:27.808825 31060 net.cpp:165] Memory required for data: 147078000
I0812 09:15:27.808832 31060 layer_factory.hpp:77] Creating layer norm1
I0812 09:15:27.808850 31060 net.cpp:100] Creating Layer norm1
I0812 09:15:27.808857 31060 net.cpp:434] norm1 <- conv1
I0812 09:15:27.808867 31060 net.cpp:408] norm1 -> norm1
I0812 09:15:27.809409 31060 net.cpp:150] Setting up norm1
I0812 09:15:27.809437 31060 net.cpp:157] Top shape: 50 96 55 55 (14520000)
I0812 09:15:27.809444 31060 net.cpp:165] Memory required for data: 205158000
I0812 09:15:27.809451 31060 layer_factory.hpp:77] Creating layer pool1
I0812 09:15:27.809465 31060 net.cpp:100] Creating Layer pool1
I0812 09:15:27.809474 31060 net.cpp:434] pool1 <- norm1
I0812 09:15:27.809485 31060 net.cpp:408] pool1 -> pool1
I0812 09:15:27.809547 31060 net.cpp:150] Setting up pool1
I0812 09:15:27.809567 31060 net.cpp:157] Top shape: 50 96 27 27 (3499200)
I0812 09:15:27.809574 31060 net.cpp:165] Memory required for data: 219154800
I0812 09:15:27.809581 31060 layer_factory.hpp:77] Creating layer conv2
I0812 09:15:27.809598 31060 net.cpp:100] Creating Layer conv2
I0812 09:15:27.809605 31060 net.cpp:434] conv2 <- pool1
I0812 09:15:27.809617 31060 net.cpp:408] conv2 -> conv2
I0812 09:15:27.825996 31060 net.cpp:150] Setting up conv2
I0812 09:15:27.826030 31060 net.cpp:157] Top shape: 50 256 27 27 (9331200)
I0812 09:15:27.826038 31060 net.cpp:165] Memory required for data: 256479600
I0812 09:15:27.826056 31060 layer_factory.hpp:77] Creating layer relu2
I0812 09:15:27.826072 31060 net.cpp:100] Creating Layer relu2
I0812 09:15:27.826081 31060 net.cpp:434] relu2 <- conv2
I0812 09:15:27.826092 31060 net.cpp:395] relu2 -> conv2 (in-place)
I0812 09:15:27.826557 31060 net.cpp:150] Setting up relu2
I0812 09:15:27.826593 31060 net.cpp:157] Top shape: 50 256 27 27 (9331200)
I0812 09:15:27.826614 31060 net.cpp:165] Memory required for data: 293804400
I0812 09:15:27.826622 31060 layer_factory.hpp:77] Creating layer norm2
I0812 09:15:27.826638 31060 net.cpp:100] Creating Layer norm2
I0812 09:15:27.826645 31060 net.cpp:434] norm2 <- conv2
I0812 09:15:27.826656 31060 net.cpp:408] norm2 -> norm2
I0812 09:15:27.826943 31060 net.cpp:150] Setting up norm2
I0812 09:15:27.826963 31060 net.cpp:157] Top shape: 50 256 27 27 (9331200)
I0812 09:15:27.826972 31060 net.cpp:165] Memory required for data: 331129200
I0812 09:15:27.826977 31060 layer_factory.hpp:77] Creating layer pool2
I0812 09:15:27.826990 31060 net.cpp:100] Creating Layer pool2
I0812 09:15:27.826997 31060 net.cpp:434] pool2 <- norm2
I0812 09:15:27.827008 31060 net.cpp:408] pool2 -> pool2
I0812 09:15:27.827065 31060 net.cpp:150] Setting up pool2
I0812 09:15:27.827078 31060 net.cpp:157] Top shape: 50 256 13 13 (2163200)
I0812 09:15:27.827085 31060 net.cpp:165] Memory required for data: 339782000
I0812 09:15:27.827091 31060 layer_factory.hpp:77] Creating layer conv3
I0812 09:15:27.827107 31060 net.cpp:100] Creating Layer conv3
I0812 09:15:27.827114 31060 net.cpp:434] conv3 <- pool2
I0812 09:15:27.827126 31060 net.cpp:408] conv3 -> conv3
I0812 09:15:27.863749 31060 net.cpp:150] Setting up conv3
I0812 09:15:27.863797 31060 net.cpp:157] Top shape: 50 384 13 13 (3244800)
I0812 09:15:27.863804 31060 net.cpp:165] Memory required for data: 352761200
I0812 09:15:27.863824 31060 layer_factory.hpp:77] Creating layer relu3
I0812 09:15:27.863842 31060 net.cpp:100] Creating Layer relu3
I0812 09:15:27.863850 31060 net.cpp:434] relu3 <- conv3
I0812 09:15:27.863860 31060 net.cpp:395] relu3 -> conv3 (in-place)
I0812 09:15:27.864301 31060 net.cpp:150] Setting up relu3
I0812 09:15:27.864323 31060 net.cpp:157] Top shape: 50 384 13 13 (3244800)
I0812 09:15:27.864331 31060 net.cpp:165] Memory required for data: 365740400
I0812 09:15:27.864336 31060 layer_factory.hpp:77] Creating layer conv4
I0812 09:15:27.864354 31060 net.cpp:100] Creating Layer conv4
I0812 09:15:27.864362 31060 net.cpp:434] conv4 <- conv3
I0812 09:15:27.864372 31060 net.cpp:408] conv4 -> conv4
I0812 09:15:27.890082 31060 net.cpp:150] Setting up conv4
I0812 09:15:27.890111 31060 net.cpp:157] Top shape: 50 384 13 13 (3244800)
I0812 09:15:27.890117 31060 net.cpp:165] Memory required for data: 378719600
I0812 09:15:27.890128 31060 layer_factory.hpp:77] Creating layer relu4
I0812 09:15:27.890141 31060 net.cpp:100] Creating Layer relu4
I0812 09:15:27.890147 31060 net.cpp:434] relu4 <- conv4
I0812 09:15:27.890157 31060 net.cpp:395] relu4 -> conv4 (in-place)
I0812 09:15:27.890571 31060 net.cpp:150] Setting up relu4
I0812 09:15:27.890594 31060 net.cpp:157] Top shape: 50 384 13 13 (3244800)
I0812 09:15:27.890599 31060 net.cpp:165] Memory required for data: 391698800
I0812 09:15:27.890605 31060 layer_factory.hpp:77] Creating layer conv5
I0812 09:15:27.890621 31060 net.cpp:100] Creating Layer conv5
I0812 09:15:27.890627 31060 net.cpp:434] conv5 <- conv4
I0812 09:15:27.890638 31060 net.cpp:408] conv5 -> conv5
I0812 09:15:27.907335 31060 net.cpp:150] Setting up conv5
I0812 09:15:27.907361 31060 net.cpp:157] Top shape: 50 256 13 13 (2163200)
I0812 09:15:27.907368 31060 net.cpp:165] Memory required for data: 400351600
I0812 09:15:27.907383 31060 layer_factory.hpp:77] Creating layer relu5
I0812 09:15:27.907395 31060 net.cpp:100] Creating Layer relu5
I0812 09:15:27.907403 31060 net.cpp:434] relu5 <- conv5
I0812 09:15:27.907412 31060 net.cpp:395] relu5 -> conv5 (in-place)
I0812 09:15:27.907605 31060 net.cpp:150] Setting up relu5
I0812 09:15:27.907621 31060 net.cpp:157] Top shape: 50 256 13 13 (2163200)
I0812 09:15:27.907626 31060 net.cpp:165] Memory required for data: 409004400
I0812 09:15:27.907632 31060 layer_factory.hpp:77] Creating layer pool5
I0812 09:15:27.907646 31060 net.cpp:100] Creating Layer pool5
I0812 09:15:27.907651 31060 net.cpp:434] pool5 <- conv5
I0812 09:15:27.907660 31060 net.cpp:408] pool5 -> pool5
I0812 09:15:27.907726 31060 net.cpp:150] Setting up pool5
I0812 09:15:27.907749 31060 net.cpp:157] Top shape: 50 256 6 6 (460800)
I0812 09:15:27.907754 31060 net.cpp:165] Memory required for data: 410847600
I0812 09:15:27.907759 31060 layer_factory.hpp:77] Creating layer fc6
I0812 09:15:27.907773 31060 net.cpp:100] Creating Layer fc6
I0812 09:15:27.907778 31060 net.cpp:434] fc6 <- pool5
I0812 09:15:27.907786 31060 net.cpp:408] fc6 -> fc6
I0812 09:15:28.994408 31060 net.cpp:150] Setting up fc6
I0812 09:15:28.994457 31060 net.cpp:157] Top shape: 50 4096 (204800)
I0812 09:15:28.994463 31060 net.cpp:165] Memory required for data: 411666800
I0812 09:15:28.994480 31060 layer_factory.hpp:77] Creating layer relu6
I0812 09:15:28.994501 31060 net.cpp:100] Creating Layer relu6
I0812 09:15:28.994510 31060 net.cpp:434] relu6 <- fc6
I0812 09:15:28.994523 31060 net.cpp:395] relu6 -> fc6 (in-place)
I0812 09:15:28.995231 31060 net.cpp:150] Setting up relu6
I0812 09:15:28.995247 31060 net.cpp:157] Top shape: 50 4096 (204800)
I0812 09:15:28.995251 31060 net.cpp:165] Memory required for data: 412486000
I0812 09:15:28.995255 31060 layer_factory.hpp:77] Creating layer drop6
I0812 09:15:28.995267 31060 net.cpp:100] Creating Layer drop6
I0812 09:15:28.995271 31060 net.cpp:434] drop6 <- fc6
I0812 09:15:28.995278 31060 net.cpp:395] drop6 -> fc6 (in-place)
I0812 09:15:28.995327 31060 net.cpp:150] Setting up drop6
I0812 09:15:28.995334 31060 net.cpp:157] Top shape: 50 4096 (204800)
I0812 09:15:28.995337 31060 net.cpp:165] Memory required for data: 413305200
I0812 09:15:28.995342 31060 layer_factory.hpp:77] Creating layer fc7
I0812 09:15:28.995354 31060 net.cpp:100] Creating Layer fc7
I0812 09:15:28.995358 31060 net.cpp:434] fc7 <- fc6
I0812 09:15:28.995367 31060 net.cpp:408] fc7 -> fc7
I0812 09:15:29.407578 31060 net.cpp:150] Setting up fc7
I0812 09:15:29.407624 31060 net.cpp:157] Top shape: 50 4096 (204800)
I0812 09:15:29.407629 31060 net.cpp:165] Memory required for data: 414124400
I0812 09:15:29.407641 31060 layer_factory.hpp:77] Creating layer relu7
I0812 09:15:29.407656 31060 net.cpp:100] Creating Layer relu7
I0812 09:15:29.407662 31060 net.cpp:434] relu7 <- fc7
I0812 09:15:29.407672 31060 net.cpp:395] relu7 -> fc7 (in-place)
I0812 09:15:29.407923 31060 net.cpp:150] Setting up relu7
I0812 09:15:29.407935 31060 net.cpp:157] Top shape: 50 4096 (204800)
I0812 09:15:29.407940 31060 net.cpp:165] Memory required for data: 414943600
I0812 09:15:29.407944 31060 layer_factory.hpp:77] Creating layer drop7
I0812 09:15:29.407955 31060 net.cpp:100] Creating Layer drop7
I0812 09:15:29.407960 31060 net.cpp:434] drop7 <- fc7
I0812 09:15:29.407966 31060 net.cpp:395] drop7 -> fc7 (in-place)
I0812 09:15:29.407999 31060 net.cpp:150] Setting up drop7
I0812 09:15:29.408015 31060 net.cpp:157] Top shape: 50 4096 (204800)
I0812 09:15:29.408020 31060 net.cpp:165] Memory required for data: 415762800
I0812 09:15:29.408023 31060 layer_factory.hpp:77] Creating layer fc8
I0812 09:15:29.408035 31060 net.cpp:100] Creating Layer fc8
I0812 09:15:29.408038 31060 net.cpp:434] fc8 <- fc7
I0812 09:15:29.408047 31060 net.cpp:408] fc8 -> fc8
I0812 09:15:29.507474 31060 net.cpp:150] Setting up fc8
I0812 09:15:29.507503 31060 net.cpp:157] Top shape: 50 1000 (50000)
I0812 09:15:29.507508 31060 net.cpp:165] Memory required for data: 415962800
I0812 09:15:29.507516 31060 layer_factory.hpp:77] Creating layer fc8_fc8_0_split
I0812 09:15:29.507529 31060 net.cpp:100] Creating Layer fc8_fc8_0_split
I0812 09:15:29.507534 31060 net.cpp:434] fc8_fc8_0_split <- fc8
I0812 09:15:29.507544 31060 net.cpp:408] fc8_fc8_0_split -> fc8_fc8_0_split_0
I0812 09:15:29.507553 31060 net.cpp:408] fc8_fc8_0_split -> fc8_fc8_0_split_1
I0812 09:15:29.507609 31060 net.cpp:150] Setting up fc8_fc8_0_split
I0812 09:15:29.507616 31060 net.cpp:157] Top shape: 50 1000 (50000)
I0812 09:15:29.507622 31060 net.cpp:157] Top shape: 50 1000 (50000)
I0812 09:15:29.507624 31060 net.cpp:165] Memory required for data: 416362800
I0812 09:15:29.507628 31060 layer_factory.hpp:77] Creating layer accuracy
I0812 09:15:29.507637 31060 net.cpp:100] Creating Layer accuracy
I0812 09:15:29.507650 31060 net.cpp:434] accuracy <- fc8_fc8_0_split_0
I0812 09:15:29.507665 31060 net.cpp:434] accuracy <- label_data_1_split_0
I0812 09:15:29.507673 31060 net.cpp:408] accuracy -> accuracy
…
