…
I0811 12:24:26.576001 12703 net.cpp:322] The NetState phase (0) differed from the phase (1) specified by a rule in layer accuracy
I0811 12:24:26.576314 12703 net.cpp:58] Initializing net from parameters: 
name: "AlexNet"
state {
  phase: TRAIN
  level: 0
  stage: ""
}
layer {
  name: "data"
  type: "Data"
  top: "data"
  top: "label"
  include {
    phase: TRAIN
  }
  transform_param {
    mirror: true
    crop_size: 227
    mean_file: "imagenet_mean.binaryproto"
  }
  data_param {
    source: "/data/ilsvrc10_train_lmdb"
    batch_size: 256
    backend: LMDB
  }
}
layer {
  name: "conv1"
  type: "Convolution"
  bottom: "data"
  top: "conv1"
  param {
    lr_mult: 1
    decay_mult: 1
  }
  param {
    lr_mult: 2
    decay_mult: 0
  }
  convolution_param {
    num_output: 96
    kernel_size: 11
    stride: 4
    weight_filler {
      type: "gaussian"
      std: 0.01
    }
    bias_filler {
      type: "constant"
      value: 0
    }
  }
}
layer {
  name: "relu1"
  type: "ReLU"
  bottom: "conv1"
  top: "conv1"
}
layer {
  name: "norm1"
  type: "LRN"
  bottom: "conv1"
  top: "norm1"
  lrn_param {
    local_size: 5
    alpha: 0.0001
    beta: 0.75
  }
}
layer {
  name: "pool1"
  type: "Pooling"
  bottom: "norm1"
  top: "pool1"
  pooling_param {
    pool: MAX
    kernel_size: 3
    stride: 2
  }
}
layer {
  name: "conv2"
  type: "Convolution"
  bottom: "pool1"
  top: "conv2"
  param {
    lr_mult: 1
    decay_mult: 1
  }
  param {
    lr_mult: 2
    decay_mult: 0
  }
  convolution_param {
    num_output: 256
    pad: 2
    kernel_size: 5
    group: 2
    weight_filler {
      type: "gaussian"
      std: 0.01
    }
    bias_filler {
      type: "constant"
      value: 0.1
    }
  }
}
layer {
  name: "relu2"
  type: "ReLU"
  bottom: "conv2"
  top: "conv2"
}
layer {
  name: "norm2"
  type: "LRN"
  bottom: "conv2"
  top: "norm2"
  lrn_param {
    local_size: 5
    alpha: 0.0001
    beta: 0.75
  }
}
layer {
  name: "pool2"
  type: "Pooling"
  bottom: "norm2"
  top: "pool2"
  pooling_param {
    pool: MAX
    kernel_size: 3
    stride: 2
  }
}
layer {
  name: "conv3"
  type: "Convolution"
  bottom: "pool2"
  top: "conv3"
  param {
    lr_mult: 1
    decay_mult: 1
  }
  param {
    lr_mult: 2
    decay_mult: 0
  }
  convolution_param {
    num_output: 384
    pad: 1
    kernel_size: 3
    weight_filler {
      type: "gaussian"
      std: 0.01
    }
    bias_filler {
      type: "constant"
      value: 0
    }
  }
}
layer {
  name: "relu3"
  type: "ReLU"
  bottom: "conv3"
  top: "conv3"
}
layer {
  name: "conv4"
  type: "Convolution"
  bottom: "conv3"
  top: "conv4"
  param {
    lr_mult: 1
    decay_mult: 1
  }
  param {
    lr_mult: 2
    decay_mult: 0
  }
  convolution_param {
    num_output: 384
    pad: 1
    kernel_size: 3
    group: 2
    weight_filler {
      type: "gaussian"
      std: 0.01
    }
    bias_filler {
      type: "constant"
      value: 0.1
    }
  }
}
layer {
  name: "relu4"
  type: "ReLU"
  bottom: "conv4"
  top: "conv4"
}
layer {
  name: "conv5"
  type: "Convolution"
  bottom: "conv4"
  top: "conv5"
  param {
    lr_mult: 1
    decay_mult: 1
  }
  param {
    lr_mult: 2
    decay_mult: 0
  }
  convolution_param {
    num_output: 256
    pad: 1
    kernel_size: 3
    group: 2
    weight_filler {
      type: "gaussian"
      std: 0.01
    }
    bias_filler {
      type: "constant"
      value: 0.1
    }
  }
}
layer {
  name: "relu5"
  type: "ReLU"
  bottom: "conv5"
  top: "conv5"
}
layer {
  name: "pool5"
  type: "Pooling"
  bottom: "conv5"
  top: "pool5"
  pooling_param {
    pool: MAX
    kernel_size: 3
    stride: 2
  }
}
layer {
  name: "fc6"
  type: "InnerProduct"
  bottom: "pool5"
  top: "fc6"
  param {
    lr_mult: 1
    decay_mult: 1
  }
  param {
    lr_mult: 2
    decay_mult: 0
  }
  inner_product_param {
    num_output: 4096
    weight_filler {
      type: "gaussian"
      std: 0.005
    }
    bias_filler {
      type: "constant"
      value: 0.1
    }
  }
}
layer {
  name: "relu6"
  type: "ReLU"
  bottom: "fc6"
  top: "fc6"
}
layer {
  name: "drop6"
  type: "Dropout"
  bottom: "fc6"
  top: "fc6"
  dropout_param {
    dropout_ratio: 0.5
  }
}
layer {
  name: "fc7"
  type: "InnerProduct"
  bottom: "fc6"
  top: "fc7"
  param {
    lr_mult: 1
    decay_mult: 1
  }
  param {
    lr_mult: 2
    decay_mult: 0
  }
  inner_product_param {
    num_output: 4096
    weight_filler {
      type: "gaussian"
      std: 0.005
    }
    bias_filler {
      type: "constant"
      value: 0.1
    }
  }
}
layer {
  name: "relu7"
  type: "ReLU"
  bottom: "fc7"
  top: "fc7"
}
layer {
  name: "drop7"
  type: "Dropout"
  bottom: "fc7"
  top: "fc7"
  dropout_param {
    dropout_ratio: 0.5
  }
}
layer {
  name: "fc8"
  type: "InnerProduct"
  bottom: "fc7"
  top: "fc8"
  param {
    lr_mult: 1
    decay_mult: 1
  }
  param {
    lr_mult: 2
    decay_mult: 0
  }
  inner_product_param {
    num_output: 1000
    weight_filler {
      type: "gaussian"
      std: 0.01
    }
    bias_filler {
      type: "constant"
      value: 0
    }
  }
}
layer {
  name: "loss"
  type: "SoftmaxWithLoss"
  bottom: "fc8"
  bottom: "label"
  top: "loss"
}
I0811 12:24:26.576486 12703 layer_factory.hpp:77] Creating layer data
I0811 12:24:26.577215 12703 net.cpp:100] Creating Layer data
I0811 12:24:26.577239 12703 net.cpp:408] data -> data
I0811 12:24:26.577275 12703 net.cpp:408] data -> label
I0811 12:24:26.577297 12703 data_transformer.cpp:25] Loading mean file from: imagenet_mean.binaryproto
I0811 12:24:26.579298 12736 db_lmdb.cpp:35] Opened lmdb /data/ilsvrc10_train_lmdb
I0811 12:24:26.590793 12703 data_layer.cpp:41] output data size: 256,3,227,227
I0811 12:24:26.953598 12703 net.cpp:150] Setting up data
I0811 12:24:26.953655 12703 net.cpp:157] Top shape: 256 3 227 227 (39574272)
I0811 12:24:26.953665 12703 net.cpp:157] Top shape: 256 (256)
I0811 12:24:26.953670 12703 net.cpp:165] Memory required for data: 158298112
I0811 12:24:26.953687 12703 layer_factory.hpp:77] Creating layer conv1
I0811 12:24:26.953723 12703 net.cpp:100] Creating Layer conv1
I0811 12:24:26.953737 12703 net.cpp:434] conv1 <- data
I0811 12:24:26.953757 12703 net.cpp:408] conv1 -> conv1
I0811 12:24:26.978379 12737 blocking_queue.cpp:50] Waiting for data
I0811 12:24:27.133272 12703 net.cpp:150] Setting up conv1
I0811 12:24:27.133311 12703 net.cpp:157] Top shape: 256 96 55 55 (74342400)
I0811 12:24:27.133316 12703 net.cpp:165] Memory required for data: 455667712
I0811 12:24:27.133337 12703 layer_factory.hpp:77] Creating layer relu1
I0811 12:24:27.133355 12703 net.cpp:100] Creating Layer relu1
I0811 12:24:27.133363 12703 net.cpp:434] relu1 <- conv1
I0811 12:24:27.133376 12703 net.cpp:395] relu1 -> conv1 (in-place)
I0811 12:24:27.133533 12703 net.cpp:150] Setting up relu1
I0811 12:24:27.133544 12703 net.cpp:157] Top shape: 256 96 55 55 (74342400)
I0811 12:24:27.133549 12703 net.cpp:165] Memory required for data: 753037312
I0811 12:24:27.133554 12703 layer_factory.hpp:77] Creating layer norm1
I0811 12:24:27.133566 12703 net.cpp:100] Creating Layer norm1
I0811 12:24:27.133571 12703 net.cpp:434] norm1 <- conv1
I0811 12:24:27.133577 12703 net.cpp:408] norm1 -> norm1
I0811 12:24:27.133895 12703 net.cpp:150] Setting up norm1
I0811 12:24:27.133910 12703 net.cpp:157] Top shape: 256 96 55 55 (74342400)
I0811 12:24:27.133914 12703 net.cpp:165] Memory required for data: 1050406912
I0811 12:24:27.133919 12703 layer_factory.hpp:77] Creating layer pool1
I0811 12:24:27.133935 12703 net.cpp:100] Creating Layer pool1
I0811 12:24:27.133951 12703 net.cpp:434] pool1 <- norm1
I0811 12:24:27.133958 12703 net.cpp:408] pool1 -> pool1
I0811 12:24:27.134008 12703 net.cpp:150] Setting up pool1
I0811 12:24:27.134017 12703 net.cpp:157] Top shape: 256 96 27 27 (17915904)
I0811 12:24:27.134021 12703 net.cpp:165] Memory required for data: 1122070528
I0811 12:24:27.134026 12703 layer_factory.hpp:77] Creating layer conv2
I0811 12:24:27.134039 12703 net.cpp:100] Creating Layer conv2
I0811 12:24:27.134044 12703 net.cpp:434] conv2 <- pool1
I0811 12:24:27.134050 12703 net.cpp:408] conv2 -> conv2
I0811 12:24:27.143656 12703 net.cpp:150] Setting up conv2
I0811 12:24:27.143673 12703 net.cpp:157] Top shape: 256 256 27 27 (47775744)
I0811 12:24:27.143678 12703 net.cpp:165] Memory required for data: 1313173504
I0811 12:24:27.143688 12703 layer_factory.hpp:77] Creating layer relu2
I0811 12:24:27.143697 12703 net.cpp:100] Creating Layer relu2
I0811 12:24:27.143702 12703 net.cpp:434] relu2 <- conv2
I0811 12:24:27.143707 12703 net.cpp:395] relu2 -> conv2 (in-place)
I0811 12:24:27.143853 12703 net.cpp:150] Setting up relu2
I0811 12:24:27.143867 12703 net.cpp:157] Top shape: 256 256 27 27 (47775744)
I0811 12:24:27.143872 12703 net.cpp:165] Memory required for data: 1504276480
I0811 12:24:27.143877 12703 layer_factory.hpp:77] Creating layer norm2
I0811 12:24:27.143883 12703 net.cpp:100] Creating Layer norm2
I0811 12:24:27.143887 12703 net.cpp:434] norm2 <- conv2
I0811 12:24:27.143893 12703 net.cpp:408] norm2 -> norm2
I0811 12:24:27.144217 12703 net.cpp:150] Setting up norm2
I0811 12:24:27.144232 12703 net.cpp:157] Top shape: 256 256 27 27 (47775744)
I0811 12:24:27.144235 12703 net.cpp:165] Memory required for data: 1695379456
I0811 12:24:27.144239 12703 layer_factory.hpp:77] Creating layer pool2
I0811 12:24:27.144250 12703 net.cpp:100] Creating Layer pool2
I0811 12:24:27.144254 12703 net.cpp:434] pool2 <- norm2
I0811 12:24:27.144260 12703 net.cpp:408] pool2 -> pool2
I0811 12:24:27.144294 12703 net.cpp:150] Setting up pool2
I0811 12:24:27.144301 12703 net.cpp:157] Top shape: 256 256 13 13 (11075584)
I0811 12:24:27.144304 12703 net.cpp:165] Memory required for data: 1739681792
I0811 12:24:27.144309 12703 layer_factory.hpp:77] Creating layer conv3
I0811 12:24:27.144320 12703 net.cpp:100] Creating Layer conv3
I0811 12:24:27.144323 12703 net.cpp:434] conv3 <- pool2
I0811 12:24:27.144332 12703 net.cpp:408] conv3 -> conv3
I0811 12:24:27.166558 12703 net.cpp:150] Setting up conv3
I0811 12:24:27.166575 12703 net.cpp:157] Top shape: 256 384 13 13 (16613376)
I0811 12:24:27.166580 12703 net.cpp:165] Memory required for data: 1806135296
I0811 12:24:27.166589 12703 layer_factory.hpp:77] Creating layer relu3
I0811 12:24:27.166599 12703 net.cpp:100] Creating Layer relu3
I0811 12:24:27.166604 12703 net.cpp:434] relu3 <- conv3
I0811 12:24:27.166610 12703 net.cpp:395] relu3 -> conv3 (in-place)
I0811 12:24:27.166915 12703 net.cpp:150] Setting up relu3
I0811 12:24:27.166930 12703 net.cpp:157] Top shape: 256 384 13 13 (16613376)
I0811 12:24:27.166934 12703 net.cpp:165] Memory required for data: 1872588800
I0811 12:24:27.166939 12703 layer_factory.hpp:77] Creating layer conv4
I0811 12:24:27.166954 12703 net.cpp:100] Creating Layer conv4
I0811 12:24:27.166960 12703 net.cpp:434] conv4 <- conv3
I0811 12:24:27.166966 12703 net.cpp:408] conv4 -> conv4
I0811 12:24:27.184739 12703 net.cpp:150] Setting up conv4
I0811 12:24:27.184756 12703 net.cpp:157] Top shape: 256 384 13 13 (16613376)
I0811 12:24:27.184762 12703 net.cpp:165] Memory required for data: 1939042304
I0811 12:24:27.184768 12703 layer_factory.hpp:77] Creating layer relu4
I0811 12:24:27.184782 12703 net.cpp:100] Creating Layer relu4
I0811 12:24:27.184787 12703 net.cpp:434] relu4 <- conv4
I0811 12:24:27.184792 12703 net.cpp:395] relu4 -> conv4 (in-place)
I0811 12:24:27.184940 12703 net.cpp:150] Setting up relu4
I0811 12:24:27.184952 12703 net.cpp:157] Top shape: 256 384 13 13 (16613376)
I0811 12:24:27.184957 12703 net.cpp:165] Memory required for data: 2005495808
I0811 12:24:27.184967 12703 layer_factory.hpp:77] Creating layer conv5
I0811 12:24:27.184984 12703 net.cpp:100] Creating Layer conv5
I0811 12:24:27.184989 12703 net.cpp:434] conv5 <- conv4
I0811 12:24:27.184998 12703 net.cpp:408] conv5 -> conv5
I0811 12:24:27.197685 12703 net.cpp:150] Setting up conv5
I0811 12:24:27.197702 12703 net.cpp:157] Top shape: 256 256 13 13 (11075584)
I0811 12:24:27.197706 12703 net.cpp:165] Memory required for data: 2049798144
I0811 12:24:27.197718 12703 layer_factory.hpp:77] Creating layer relu5
I0811 12:24:27.197726 12703 net.cpp:100] Creating Layer relu5
I0811 12:24:27.197731 12703 net.cpp:434] relu5 <- conv5
I0811 12:24:27.197736 12703 net.cpp:395] relu5 -> conv5 (in-place)
I0811 12:24:27.197887 12703 net.cpp:150] Setting up relu5
I0811 12:24:27.197899 12703 net.cpp:157] Top shape: 256 256 13 13 (11075584)
I0811 12:24:27.197903 12703 net.cpp:165] Memory required for data: 2094100480
I0811 12:24:27.197908 12703 layer_factory.hpp:77] Creating layer pool5
I0811 12:24:27.197916 12703 net.cpp:100] Creating Layer pool5
I0811 12:24:27.197919 12703 net.cpp:434] pool5 <- conv5
I0811 12:24:27.197926 12703 net.cpp:408] pool5 -> pool5
I0811 12:24:27.197964 12703 net.cpp:150] Setting up pool5
I0811 12:24:27.197974 12703 net.cpp:157] Top shape: 256 256 6 6 (2359296)
I0811 12:24:27.197978 12703 net.cpp:165] Memory required for data: 2103537664
I0811 12:24:27.197983 12703 layer_factory.hpp:77] Creating layer fc6
I0811 12:24:27.197993 12703 net.cpp:100] Creating Layer fc6
I0811 12:24:27.197999 12703 net.cpp:434] fc6 <- pool5
I0811 12:24:27.198006 12703 net.cpp:408] fc6 -> fc6
I0811 12:24:28.126031 12703 net.cpp:150] Setting up fc6
I0811 12:24:28.126078 12703 net.cpp:157] Top shape: 256 4096 (1048576)
I0811 12:24:28.126085 12703 net.cpp:165] Memory required for data: 2107731968
I0811 12:24:28.126096 12703 layer_factory.hpp:77] Creating layer relu6
I0811 12:24:28.126111 12703 net.cpp:100] Creating Layer relu6
I0811 12:24:28.126121 12703 net.cpp:434] relu6 <- fc6
I0811 12:24:28.126128 12703 net.cpp:395] relu6 -> fc6 (in-place)
I0811 12:24:28.126642 12703 net.cpp:150] Setting up relu6
I0811 12:24:28.126659 12703 net.cpp:157] Top shape: 256 4096 (1048576)
I0811 12:24:28.126664 12703 net.cpp:165] Memory required for data: 2111926272
I0811 12:24:28.126669 12703 layer_factory.hpp:77] Creating layer drop6
I0811 12:24:28.126678 12703 net.cpp:100] Creating Layer drop6
I0811 12:24:28.126682 12703 net.cpp:434] drop6 <- fc6
I0811 12:24:28.126688 12703 net.cpp:395] drop6 -> fc6 (in-place)
I0811 12:24:28.126720 12703 net.cpp:150] Setting up drop6
I0811 12:24:28.126727 12703 net.cpp:157] Top shape: 256 4096 (1048576)
I0811 12:24:28.126731 12703 net.cpp:165] Memory required for data: 2116120576
I0811 12:24:28.126735 12703 layer_factory.hpp:77] Creating layer fc7
I0811 12:24:28.126745 12703 net.cpp:100] Creating Layer fc7
I0811 12:24:28.126751 12703 net.cpp:434] fc7 <- fc6
I0811 12:24:28.126757 12703 net.cpp:408] fc7 -> fc7
I0811 12:24:28.539321 12703 net.cpp:150] Setting up fc7
I0811 12:24:28.539366 12703 net.cpp:157] Top shape: 256 4096 (1048576)
I0811 12:24:28.539371 12703 net.cpp:165] Memory required for data: 2120314880
I0811 12:24:28.539383 12703 layer_factory.hpp:77] Creating layer relu7
I0811 12:24:28.539398 12703 net.cpp:100] Creating Layer relu7
I0811 12:24:28.539404 12703 net.cpp:434] relu7 <- fc7
I0811 12:24:28.539417 12703 net.cpp:395] relu7 -> fc7 (in-place)
I0811 12:24:28.539633 12703 net.cpp:150] Setting up relu7
I0811 12:24:28.539647 12703 net.cpp:157] Top shape: 256 4096 (1048576)
I0811 12:24:28.539652 12703 net.cpp:165] Memory required for data: 2124509184
I0811 12:24:28.539656 12703 layer_factory.hpp:77] Creating layer drop7
I0811 12:24:28.539665 12703 net.cpp:100] Creating Layer drop7
I0811 12:24:28.539669 12703 net.cpp:434] drop7 <- fc7
I0811 12:24:28.539674 12703 net.cpp:395] drop7 -> fc7 (in-place)
I0811 12:24:28.539697 12703 net.cpp:150] Setting up drop7
I0811 12:24:28.539705 12703 net.cpp:157] Top shape: 256 4096 (1048576)
I0811 12:24:28.539708 12703 net.cpp:165] Memory required for data: 2128703488
I0811 12:24:28.539724 12703 layer_factory.hpp:77] Creating layer fc8
I0811 12:24:28.539744 12703 net.cpp:100] Creating Layer fc8
I0811 12:24:28.539750 12703 net.cpp:434] fc8 <- fc7
I0811 12:24:28.539759 12703 net.cpp:408] fc8 -> fc8
I0811 12:24:28.639277 12703 net.cpp:150] Setting up fc8
I0811 12:24:28.639308 12703 net.cpp:157] Top shape: 256 1000 (256000)
I0811 12:24:28.639313 12703 net.cpp:165] Memory required for data: 2129727488
I0811 12:24:28.639322 12703 layer_factory.hpp:77] Creating layer loss
I0811 12:24:28.639333 12703 net.cpp:100] Creating Layer loss
I0811 12:24:28.639338 12703 net.cpp:434] loss <- fc8
I0811 12:24:28.639344 12703 net.cpp:434] loss <- label
I0811 12:24:28.639358 12703 net.cpp:408] loss -> loss
I0811 12:24:28.639379 12703 layer_factory.hpp:77] Creating layer loss
…
I0811 12:24:28.641373 12703 solver.cpp:181] Creating test net (#0) specified by net file: train_val.prototxt
I0811 12:24:28.641433 12703 net.cpp:322] The NetState phase (1) differed from the phase (0) specified by a rule in layer data
I0811 12:24:28.641705 12703 net.cpp:58] Initializing net from parameters: 
name: "AlexNet"
state {
  phase: TEST
}
layer {
  name: "data"
  type: "Data"
  top: "data"
  top: "label"
  include {
    phase: TEST
  }
  transform_param {
    mirror: false
    crop_size: 227
    mean_file: "imagenet_mean.binaryproto"
  }
  data_param {
    source: "/data/ilsvrc10_val_lmdb"
    batch_size: 50
    backend: LMDB
  }
}
layer {
  name: "conv1"
  type: "Convolution"
  bottom: "data"
  top: "conv1"
  param {
    lr_mult: 1
    decay_mult: 1
  }
  param {
    lr_mult: 2
    decay_mult: 0
  }
  convolution_param {
    num_output: 96
    kernel_size: 11
    stride: 4
    weight_filler {
      type: "gaussian"
      std: 0.01
    }
    bias_filler {
      type: "constant"
      value: 0
    }
  }
}
layer {
  name: "relu1"
  type: "ReLU"
  bottom: "conv1"
  top: "conv1"
}
layer {
  name: "norm1"
  type: "LRN"
  bottom: "conv1"
  top: "norm1"
  lrn_param {
    local_size: 5
    alpha: 0.0001
    beta: 0.75
  }
}
layer {
  name: "pool1"
  type: "Pooling"
  bottom: "norm1"
  top: "pool1"
  pooling_param {
    pool: MAX
    kernel_size: 3
    stride: 2
  }
}
layer {
  name: "conv2"
  type: "Convolution"
  bottom: "pool1"
  top: "conv2"
  param {
    lr_mult: 1
    decay_mult: 1
  }
  param {
    lr_mult: 2
    decay_mult: 0
  }
  convolution_param {
    num_output: 256
    pad: 2
    kernel_size: 5
    group: 2
    weight_filler {
      type: "gaussian"
      std: 0.01
    }
    bias_filler {
      type: "constant"
      value: 0.1
    }
  }
}
layer {
  name: "relu2"
  type: "ReLU"
  bottom: "conv2"
  top: "conv2"
}
layer {
  name: "norm2"
  type: "LRN"
  bottom: "conv2"
  top: "norm2"
  lrn_param {
    local_size: 5
    alpha: 0.0001
    beta: 0.75
  }
}
layer {
  name: "pool2"
  type: "Pooling"
  bottom: "norm2"
  top: "pool2"
  pooling_param {
    pool: MAX
    kernel_size: 3
    stride: 2
  }
}
layer {
  name: "conv3"
  type: "Convolution"
  bottom: "pool2"
  top: "conv3"
  param {
    lr_mult: 1
    decay_mult: 1
  }
  param {
    lr_mult: 2
    decay_mult: 0
  }
  convolution_param {
    num_output: 384
    pad: 1
    kernel_size: 3
    weight_filler {
      type: "gaussian"
      std: 0.01
    }
    bias_filler {
      type: "constant"
      value: 0
    }
  }
}
layer {
  name: "relu3"
  type: "ReLU"
  bottom: "conv3"
  top: "conv3"
}
layer {
  name: "conv4"
  type: "Convolution"
  bottom: "conv3"
  top: "conv4"
  param {
    lr_mult: 1
    decay_mult: 1
  }
  param {
    lr_mult: 2
    decay_mult: 0
  }
  convolution_param {
    num_output: 384
    pad: 1
    kernel_size: 3
    group: 2
    weight_filler {
      type: "gaussian"
      std: 0.01
    }
    bias_filler {
      type: "constant"
      value: 0.1
    }
  }
}
layer {
  name: "relu4"
  type: "ReLU"
  bottom: "conv4"
  top: "conv4"
}
layer {
  name: "conv5"
  type: "Convolution"
  bottom: "conv4"
  top: "conv5"
  param {
    lr_mult: 1
    decay_mult: 1
  }
  param {
    lr_mult: 2
    decay_mult: 0
  }
  convolution_param {
    num_output: 256
    pad: 1
    kernel_size: 3
    group: 2
    weight_filler {
      type: "gaussian"
      std: 0.01
    }
    bias_filler {
      type: "constant"
      value: 0.1
    }
  }
}
layer {
  name: "relu5"
  type: "ReLU"
  bottom: "conv5"
  top: "conv5"
}
layer {
  name: "pool5"
  type: "Pooling"
  bottom: "conv5"
  top: "pool5"
  pooling_param {
    pool: MAX
    kernel_size: 3
    stride: 2
  }
}
layer {
  name: "fc6"
  type: "InnerProduct"
  bottom: "pool5"
  top: "fc6"
  param {
    lr_mult: 1
    decay_mult: 1
  }
  param {
    lr_mult: 2
    decay_mult: 0
  }
  inner_product_param {
    num_output: 4096
    weight_filler {
      type: "gaussian"
      std: 0.005
    }
    bias_filler {
      type: "constant"
      value: 0.1
    }
  }
}
layer {
  name: "relu6"
  type: "ReLU"
  bottom: "fc6"
  top: "fc6"
}
layer {
  name: "drop6"
  type: "Dropout"
  bottom: "fc6"
  top: "fc6"
  dropout_param {
    dropout_ratio: 0.5
  }
}
layer {
  name: "fc7"
  type: "InnerProduct"
  bottom: "fc6"
  top: "fc7"
  param {
    lr_mult: 1
    decay_mult: 1
  }
  param {
    lr_mult: 2
    decay_mult: 0
  }
  inner_product_param {
    num_output: 4096
    weight_filler {
      type: "gaussian"
      std: 0.005
    }
    bias_filler {
      type: "constant"
      value: 0.1
    }
  }
}
layer {
  name: "relu7"
  type: "ReLU"
  bottom: "fc7"
  top: "fc7"
}
layer {
  name: "drop7"
  type: "Dropout"
  bottom: "fc7"
  top: "fc7"
  dropout_param {
    dropout_ratio: 0.5
  }
}
layer {
  name: "fc8"
  type: "InnerProduct"
  bottom: "fc7"
  top: "fc8"
  param {
    lr_mult: 1
    decay_mult: 1
  }
  param {
    lr_mult: 2
    decay_mult: 0
  }
  inner_product_param {
    num_output: 1000
    weight_filler {
      type: "gaussian"
      std: 0.01
    }
    bias_filler {
      type: "constant"
      value: 0
    }
  }
}
layer {
  name: "accuracy"
  type: "Accuracy"
  bottom: "fc8"
  bottom: "label"
  top: "accuracy"
  include {
    phase: TEST
  }
}
layer {
  name: "loss"
  type: "SoftmaxWithLoss"
  bottom: "fc8"
  bottom: "label"
  top: "loss"
}
I0811 12:24:28.641847 12703 layer_factory.hpp:77] Creating layer data
I0811 12:24:28.641944 12703 net.cpp:100] Creating Layer data
I0811 12:24:28.641957 12703 net.cpp:408] data -> data
I0811 12:24:28.641966 12703 net.cpp:408] data -> label
I0811 12:24:28.641974 12703 data_transformer.cpp:25] Loading mean file from: imagenet_mean.binaryproto
I0811 12:24:28.643992 12738 db_lmdb.cpp:35] Opened lmdb /data/ilsvrc10_val_lmdb
I0811 12:24:28.644517 12703 data_layer.cpp:41] output data size: 50,3,227,227
I0811 12:24:28.703569 12703 net.cpp:150] Setting up data
I0811 12:24:28.703614 12703 net.cpp:157] Top shape: 50 3 227 227 (7729350)
I0811 12:24:28.703621 12703 net.cpp:157] Top shape: 50 (50)
I0811 12:24:28.703625 12703 net.cpp:165] Memory required for data: 30917600
I0811 12:24:28.703634 12703 layer_factory.hpp:77] Creating layer label_data_1_split
I0811 12:24:28.703651 12703 net.cpp:100] Creating Layer label_data_1_split
I0811 12:24:28.703660 12703 net.cpp:434] label_data_1_split <- label
I0811 12:24:28.703672 12703 net.cpp:408] label_data_1_split -> label_data_1_split_0
I0811 12:24:28.703685 12703 net.cpp:408] label_data_1_split -> label_data_1_split_1
I0811 12:24:28.703734 12703 net.cpp:150] Setting up label_data_1_split
I0811 12:24:28.703742 12703 net.cpp:157] Top shape: 50 (50)
I0811 12:24:28.703747 12703 net.cpp:157] Top shape: 50 (50)
I0811 12:24:28.703750 12703 net.cpp:165] Memory required for data: 30918000
I0811 12:24:28.703754 12703 layer_factory.hpp:77] Creating layer conv1
I0811 12:24:28.703769 12703 net.cpp:100] Creating Layer conv1
I0811 12:24:28.703774 12703 net.cpp:434] conv1 <- data
I0811 12:24:28.703781 12703 net.cpp:408] conv1 -> conv1
I0811 12:24:28.705782 12703 net.cpp:150] Setting up conv1
I0811 12:24:28.705799 12703 net.cpp:157] Top shape: 50 96 55 55 (14520000)
I0811 12:24:28.705804 12703 net.cpp:165] Memory required for data: 88998000
I0811 12:24:28.705816 12703 layer_factory.hpp:77] Creating layer relu1
I0811 12:24:28.705826 12703 net.cpp:100] Creating Layer relu1
I0811 12:24:28.705831 12703 net.cpp:434] relu1 <- conv1
I0811 12:24:28.705837 12703 net.cpp:395] relu1 -> conv1 (in-place)
I0811 12:24:28.706032 12703 net.cpp:150] Setting up relu1
I0811 12:24:28.706043 12703 net.cpp:157] Top shape: 50 96 55 55 (14520000)
I0811 12:24:28.706048 12703 net.cpp:165] Memory required for data: 147078000
I0811 12:24:28.706053 12703 layer_factory.hpp:77] Creating layer norm1
I0811 12:24:28.706063 12703 net.cpp:100] Creating Layer norm1
I0811 12:24:28.706068 12703 net.cpp:434] norm1 <- conv1
I0811 12:24:28.706075 12703 net.cpp:408] norm1 -> norm1
I0811 12:24:28.711136 12703 net.cpp:150] Setting up norm1
I0811 12:24:28.711158 12703 net.cpp:157] Top shape: 50 96 55 55 (14520000)
I0811 12:24:28.711163 12703 net.cpp:165] Memory required for data: 205158000
I0811 12:24:28.711168 12703 layer_factory.hpp:77] Creating layer pool1
I0811 12:24:28.711177 12703 net.cpp:100] Creating Layer pool1
I0811 12:24:28.711181 12703 net.cpp:434] pool1 <- norm1
I0811 12:24:28.711189 12703 net.cpp:408] pool1 -> pool1
I0811 12:24:28.711228 12703 net.cpp:150] Setting up pool1
I0811 12:24:28.711236 12703 net.cpp:157] Top shape: 50 96 27 27 (3499200)
I0811 12:24:28.711241 12703 net.cpp:165] Memory required for data: 219154800
I0811 12:24:28.711244 12703 layer_factory.hpp:77] Creating layer conv2
I0811 12:24:28.711256 12703 net.cpp:100] Creating Layer conv2
I0811 12:24:28.711261 12703 net.cpp:434] conv2 <- pool1
I0811 12:24:28.711267 12703 net.cpp:408] conv2 -> conv2
I0811 12:24:28.720409 12703 net.cpp:150] Setting up conv2
I0811 12:24:28.720427 12703 net.cpp:157] Top shape: 50 256 27 27 (9331200)
I0811 12:24:28.720432 12703 net.cpp:165] Memory required for data: 256479600
I0811 12:24:28.720443 12703 layer_factory.hpp:77] Creating layer relu2
I0811 12:24:28.720451 12703 net.cpp:100] Creating Layer relu2
I0811 12:24:28.720455 12703 net.cpp:434] relu2 <- conv2
I0811 12:24:28.720463 12703 net.cpp:395] relu2 -> conv2 (in-place)
I0811 12:24:28.720782 12703 net.cpp:150] Setting up relu2
I0811 12:24:28.720808 12703 net.cpp:157] Top shape: 50 256 27 27 (9331200)
I0811 12:24:28.720813 12703 net.cpp:165] Memory required for data: 293804400
I0811 12:24:28.720816 12703 layer_factory.hpp:77] Creating layer norm2
I0811 12:24:28.720826 12703 net.cpp:100] Creating Layer norm2
I0811 12:24:28.720831 12703 net.cpp:434] norm2 <- conv2
I0811 12:24:28.720839 12703 net.cpp:408] norm2 -> norm2
I0811 12:24:28.721012 12703 net.cpp:150] Setting up norm2
I0811 12:24:28.721024 12703 net.cpp:157] Top shape: 50 256 27 27 (9331200)
I0811 12:24:28.721029 12703 net.cpp:165] Memory required for data: 331129200
I0811 12:24:28.721035 12703 layer_factory.hpp:77] Creating layer pool2
I0811 12:24:28.721042 12703 net.cpp:100] Creating Layer pool2
I0811 12:24:28.721046 12703 net.cpp:434] pool2 <- norm2
I0811 12:24:28.721052 12703 net.cpp:408] pool2 -> pool2
I0811 12:24:28.721088 12703 net.cpp:150] Setting up pool2
I0811 12:24:28.721094 12703 net.cpp:157] Top shape: 50 256 13 13 (2163200)
I0811 12:24:28.721098 12703 net.cpp:165] Memory required for data: 339782000
I0811 12:24:28.721103 12703 layer_factory.hpp:77] Creating layer conv3
I0811 12:24:28.721114 12703 net.cpp:100] Creating Layer conv3
I0811 12:24:28.721118 12703 net.cpp:434] conv3 <- pool2
I0811 12:24:28.721125 12703 net.cpp:408] conv3 -> conv3
I0811 12:24:28.743551 12703 net.cpp:150] Setting up conv3
I0811 12:24:28.743569 12703 net.cpp:157] Top shape: 50 384 13 13 (3244800)
I0811 12:24:28.743574 12703 net.cpp:165] Memory required for data: 352761200
I0811 12:24:28.743584 12703 layer_factory.hpp:77] Creating layer relu3
I0811 12:24:28.743592 12703 net.cpp:100] Creating Layer relu3
I0811 12:24:28.743597 12703 net.cpp:434] relu3 <- conv3
I0811 12:24:28.743603 12703 net.cpp:395] relu3 -> conv3 (in-place)
I0811 12:24:28.743909 12703 net.cpp:150] Setting up relu3
I0811 12:24:28.743924 12703 net.cpp:157] Top shape: 50 384 13 13 (3244800)
I0811 12:24:28.743929 12703 net.cpp:165] Memory required for data: 365740400
I0811 12:24:28.743934 12703 layer_factory.hpp:77] Creating layer conv4
I0811 12:24:28.743945 12703 net.cpp:100] Creating Layer conv4
I0811 12:24:28.743950 12703 net.cpp:434] conv4 <- conv3
I0811 12:24:28.743958 12703 net.cpp:408] conv4 -> conv4
I0811 12:24:28.761852 12703 net.cpp:150] Setting up conv4
I0811 12:24:28.761869 12703 net.cpp:157] Top shape: 50 384 13 13 (3244800)
I0811 12:24:28.761874 12703 net.cpp:165] Memory required for data: 378719600
I0811 12:24:28.761881 12703 layer_factory.hpp:77] Creating layer relu4
I0811 12:24:28.761889 12703 net.cpp:100] Creating Layer relu4
I0811 12:24:28.761894 12703 net.cpp:434] relu4 <- conv4
I0811 12:24:28.761901 12703 net.cpp:395] relu4 -> conv4 (in-place)
I0811 12:24:28.762217 12703 net.cpp:150] Setting up relu4
I0811 12:24:28.762231 12703 net.cpp:157] Top shape: 50 384 13 13 (3244800)
I0811 12:24:28.762236 12703 net.cpp:165] Memory required for data: 391698800
I0811 12:24:28.762241 12703 layer_factory.hpp:77] Creating layer conv5
I0811 12:24:28.762253 12703 net.cpp:100] Creating Layer conv5
I0811 12:24:28.762257 12703 net.cpp:434] conv5 <- conv4
I0811 12:24:28.762265 12703 net.cpp:408] conv5 -> conv5
I0811 12:24:28.774834 12703 net.cpp:150] Setting up conv5
I0811 12:24:28.774852 12703 net.cpp:157] Top shape: 50 256 13 13 (2163200)
I0811 12:24:28.774857 12703 net.cpp:165] Memory required for data: 400351600
I0811 12:24:28.774868 12703 layer_factory.hpp:77] Creating layer relu5
I0811 12:24:28.774875 12703 net.cpp:100] Creating Layer relu5
I0811 12:24:28.774879 12703 net.cpp:434] relu5 <- conv5
I0811 12:24:28.774886 12703 net.cpp:395] relu5 -> conv5 (in-place)
I0811 12:24:28.775032 12703 net.cpp:150] Setting up relu5
I0811 12:24:28.775043 12703 net.cpp:157] Top shape: 50 256 13 13 (2163200)
I0811 12:24:28.775048 12703 net.cpp:165] Memory required for data: 409004400
I0811 12:24:28.775053 12703 layer_factory.hpp:77] Creating layer pool5
I0811 12:24:28.775063 12703 net.cpp:100] Creating Layer pool5
I0811 12:24:28.775066 12703 net.cpp:434] pool5 <- conv5
I0811 12:24:28.775073 12703 net.cpp:408] pool5 -> pool5
I0811 12:24:28.775120 12703 net.cpp:150] Setting up pool5
I0811 12:24:28.775137 12703 net.cpp:157] Top shape: 50 256 6 6 (460800)
I0811 12:24:28.775141 12703 net.cpp:165] Memory required for data: 410847600
I0811 12:24:28.775146 12703 layer_factory.hpp:77] Creating layer fc6
I0811 12:24:28.775156 12703 net.cpp:100] Creating Layer fc6
I0811 12:24:28.775161 12703 net.cpp:434] fc6 <- pool5
I0811 12:24:28.775168 12703 net.cpp:408] fc6 -> fc6
I0811 12:24:29.705481 12703 net.cpp:150] Setting up fc6
I0811 12:24:29.705528 12703 net.cpp:157] Top shape: 50 4096 (204800)
I0811 12:24:29.705533 12703 net.cpp:165] Memory required for data: 411666800
I0811 12:24:29.705549 12703 layer_factory.hpp:77] Creating layer relu6
I0811 12:24:29.705570 12703 net.cpp:100] Creating Layer relu6
I0811 12:24:29.705579 12703 net.cpp:434] relu6 <- fc6
I0811 12:24:29.705590 12703 net.cpp:395] relu6 -> fc6 (in-place)
I0811 12:24:29.706245 12703 net.cpp:150] Setting up relu6
I0811 12:24:29.706260 12703 net.cpp:157] Top shape: 50 4096 (204800)
I0811 12:24:29.706265 12703 net.cpp:165] Memory required for data: 412486000
I0811 12:24:29.706270 12703 layer_factory.hpp:77] Creating layer drop6
I0811 12:24:29.706281 12703 net.cpp:100] Creating Layer drop6
I0811 12:24:29.706285 12703 net.cpp:434] drop6 <- fc6
I0811 12:24:29.706292 12703 net.cpp:395] drop6 -> fc6 (in-place)
I0811 12:24:29.706336 12703 net.cpp:150] Setting up drop6
I0811 12:24:29.706344 12703 net.cpp:157] Top shape: 50 4096 (204800)
I0811 12:24:29.706348 12703 net.cpp:165] Memory required for data: 413305200
I0811 12:24:29.706352 12703 layer_factory.hpp:77] Creating layer fc7
I0811 12:24:29.706364 12703 net.cpp:100] Creating Layer fc7
I0811 12:24:29.706368 12703 net.cpp:434] fc7 <- fc6
I0811 12:24:29.706377 12703 net.cpp:408] fc7 -> fc7
I0811 12:24:30.128399 12703 net.cpp:150] Setting up fc7
I0811 12:24:30.128440 12703 net.cpp:157] Top shape: 50 4096 (204800)
I0811 12:24:30.128445 12703 net.cpp:165] Memory required for data: 414124400
I0811 12:24:30.128458 12703 layer_factory.hpp:77] Creating layer relu7
I0811 12:24:30.128475 12703 net.cpp:100] Creating Layer relu7
I0811 12:24:30.128484 12703 net.cpp:434] relu7 <- fc7
I0811 12:24:30.128494 12703 net.cpp:395] relu7 -> fc7 (in-place)
I0811 12:24:30.128733 12703 net.cpp:150] Setting up relu7
I0811 12:24:30.128746 12703 net.cpp:157] Top shape: 50 4096 (204800)
I0811 12:24:30.128751 12703 net.cpp:165] Memory required for data: 414943600
I0811 12:24:30.128754 12703 layer_factory.hpp:77] Creating layer drop7
I0811 12:24:30.128764 12703 net.cpp:100] Creating Layer drop7
I0811 12:24:30.128769 12703 net.cpp:434] drop7 <- fc7
I0811 12:24:30.128775 12703 net.cpp:395] drop7 -> fc7 (in-place)
I0811 12:24:30.128808 12703 net.cpp:150] Setting up drop7
I0811 12:24:30.128816 12703 net.cpp:157] Top shape: 50 4096 (204800)
I0811 12:24:30.128820 12703 net.cpp:165] Memory required for data: 415762800
I0811 12:24:30.128825 12703 layer_factory.hpp:77] Creating layer fc8
I0811 12:24:30.128835 12703 net.cpp:100] Creating Layer fc8
I0811 12:24:30.128840 12703 net.cpp:434] fc8 <- fc7
I0811 12:24:30.128849 12703 net.cpp:408] fc8 -> fc8
I0811 12:24:30.234696 12703 net.cpp:150] Setting up fc8
I0811 12:24:30.234727 12703 net.cpp:157] Top shape: 50 1000 (50000)
I0811 12:24:30.234732 12703 net.cpp:165] Memory required for data: 415962800
I0811 12:24:30.234742 12703 layer_factory.hpp:77] Creating layer fc8_fc8_0_split
I0811 12:24:30.234755 12703 net.cpp:100] Creating Layer fc8_fc8_0_split
I0811 12:24:30.234760 12703 net.cpp:434] fc8_fc8_0_split <- fc8
I0811 12:24:30.234768 12703 net.cpp:408] fc8_fc8_0_split -> fc8_fc8_0_split_0
I0811 12:24:30.234781 12703 net.cpp:408] fc8_fc8_0_split -> fc8_fc8_0_split_1
I0811 12:24:30.234823 12703 net.cpp:150] Setting up fc8_fc8_0_split
I0811 12:24:30.234830 12703 net.cpp:157] Top shape: 50 1000 (50000)
I0811 12:24:30.234836 12703 net.cpp:157] Top shape: 50 1000 (50000)
I0811 12:24:30.234841 12703 net.cpp:165] Memory required for data: 416362800
I0811 12:24:30.234845 12703 layer_factory.hpp:77] Creating layer accuracy
I0811 12:24:30.234863 12703 net.cpp:100] Creating Layer accuracy
I0811 12:24:30.234879 12703 net.cpp:434] accuracy <- fc8_fc8_0_split_0
I0811 12:24:30.234885 12703 net.cpp:434] accuracy <- label_data_1_split_0
I0811 12:24:30.234892 12703 net.cpp:408] accuracy -> accuracy
…
