…
I0811 16:02:16.893586 26953 net.cpp:322] The NetState phase (0) differed from the phase (1) specified by a rule in layer accuracy
I0811 16:02:16.894182 26953 net.cpp:58] Initializing net from parameters: 
name: "AlexNet"
state {
  phase: TRAIN
  level: 0
  stage: ""
}
layer {
  name: "data"
  type: "Data"
  top: "data"
  top: "label"
  include {
    phase: TRAIN
  }
  transform_param {
    mirror: true
    crop_size: 227
    mean_file: "imagenet_mean.binaryproto"
  }
  data_param {
    source: "/data/ilsvrc10_train_lmdb"
    batch_size: 512
    backend: LMDB
  }
}
layer {
  name: "conv1"
  type: "Convolution"
  bottom: "data"
  top: "conv1"
  param {
    lr_mult: 1
    decay_mult: 1
  }
  param {
    lr_mult: 2
    decay_mult: 0
  }
  convolution_param {
    num_output: 96
    kernel_size: 11
    stride: 4
    weight_filler {
      type: "gaussian"
      std: 0.01
    }
    bias_filler {
      type: "constant"
      value: 0
    }
  }
}
layer {
  name: "relu1"
  type: "ReLU"
  bottom: "conv1"
  top: "conv1"
}
layer {
  name: "norm1"
  type: "LRN"
  bottom: "conv1"
  top: "norm1"
  lrn_param {
    local_size: 5
    alpha: 0.0001
    beta: 0.75
  }
}
layer {
  name: "pool1"
  type: "Pooling"
  bottom: "norm1"
  top: "pool1"
  pooling_param {
    pool: MAX
    kernel_size: 3
    stride: 2
  }
}
layer {
  name: "conv2"
  type: "Convolution"
  bottom: "pool1"
  top: "conv2"
  param {
    lr_mult: 1
    decay_mult: 1
  }
  param {
    lr_mult: 2
    decay_mult: 0
  }
  convolution_param {
    num_output: 256
    pad: 2
    kernel_size: 5
    group: 2
    weight_filler {
      type: "gaussian"
      std: 0.01
    }
    bias_filler {
      type: "constant"
      value: 0.1
    }
  }
}
layer {
  name: "relu2"
  type: "ReLU"
  bottom: "conv2"
  top: "conv2"
}
layer {
  name: "norm2"
  type: "LRN"
  bottom: "conv2"
  top: "norm2"
  lrn_param {
    local_size: 5
    alpha: 0.0001
    beta: 0.75
  }
}
layer {
  name: "pool2"
  type: "Pooling"
  bottom: "norm2"
  top: "pool2"
  pooling_param {
    pool: MAX
    kernel_size: 3
    stride: 2
  }
}
layer {
  name: "conv3"
  type: "Convolution"
  bottom: "pool2"
  top: "conv3"
  param {
    lr_mult: 1
    decay_mult: 1
  }
  param {
    lr_mult: 2
    decay_mult: 0
  }
  convolution_param {
    num_output: 384
    pad: 1
    kernel_size: 3
    weight_filler {
      type: "gaussian"
      std: 0.01
    }
    bias_filler {
      type: "constant"
      value: 0
    }
  }
}
layer {
  name: "relu3"
  type: "ReLU"
  bottom: "conv3"
  top: "conv3"
}
layer {
  name: "conv4"
  type: "Convolution"
  bottom: "conv3"
  top: "conv4"
  param {
    lr_mult: 1
    decay_mult: 1
  }
  param {
    lr_mult: 2
    decay_mult: 0
  }
  convolution_param {
    num_output: 384
    pad: 1
    kernel_size: 3
    group: 2
    weight_filler {
      type: "gaussian"
      std: 0.01
    }
    bias_filler {
      type: "constant"
      value: 0.1
    }
  }
}
layer {
  name: "relu4"
  type: "ReLU"
  bottom: "conv4"
  top: "conv4"
}
layer {
  name: "conv5"
  type: "Convolution"
  bottom: "conv4"
  top: "conv5"
  param {
    lr_mult: 1
    decay_mult: 1
  }
  param {
    lr_mult: 2
    decay_mult: 0
  }
  convolution_param {
    num_output: 256
    pad: 1
    kernel_size: 3
    group: 2
    weight_filler {
      type: "gaussian"
      std: 0.01
    }
    bias_filler {
      type: "constant"
      value: 0.1
    }
  }
}
layer {
  name: "relu5"
  type: "ReLU"
  bottom: "conv5"
  top: "conv5"
}
layer {
  name: "pool5"
  type: "Pooling"
  bottom: "conv5"
  top: "pool5"
  pooling_param {
    pool: MAX
    kernel_size: 3
    stride: 2
  }
}
layer {
  name: "fc6"
  type: "InnerProduct"
  bottom: "pool5"
  top: "fc6"
  param {
    lr_mult: 1
    decay_mult: 1
  }
  param {
    lr_mult: 2
    decay_mult: 0
  }
  inner_product_param {
    num_output: 4096
    weight_filler {
      type: "gaussian"
      std: 0.005
    }
    bias_filler {
      type: "constant"
      value: 0.1
    }
  }
}
layer {
  name: "relu6"
  type: "ReLU"
  bottom: "fc6"
  top: "fc6"
}
layer {
  name: "drop6"
  type: "Dropout"
  bottom: "fc6"
  top: "fc6"
  dropout_param {
    dropout_ratio: 0.5
  }
}
layer {
  name: "fc7"
  type: "InnerProduct"
  bottom: "fc6"
  top: "fc7"
  param {
    lr_mult: 1
    decay_mult: 1
  }
  param {
    lr_mult: 2
    decay_mult: 0
  }
  inner_product_param {
    num_output: 4096
    weight_filler {
      type: "gaussian"
      std: 0.005
    }
    bias_filler {
      type: "constant"
      value: 0.1
    }
  }
}
layer {
  name: "relu7"
  type: "ReLU"
  bottom: "fc7"
  top: "fc7"
}
layer {
  name: "drop7"
  type: "Dropout"
  bottom: "fc7"
  top: "fc7"
  dropout_param {
    dropout_ratio: 0.5
  }
}
layer {
  name: "fc8"
  type: "InnerProduct"
  bottom: "fc7"
  top: "fc8"
  param {
    lr_mult: 1
    decay_mult: 1
  }
  param {
    lr_mult: 2
    decay_mult: 0
  }
  inner_product_param {
    num_output: 1000
    weight_filler {
      type: "gaussian"
      std: 0.01
    }
    bias_filler {
      type: "constant"
      value: 0
    }
  }
}
layer {
  name: "loss"
  type: "SoftmaxWithLoss"
  bottom: "fc8"
  bottom: "label"
  top: "loss"
}
I0811 16:02:16.894451 26953 layer_factory.hpp:77] Creating layer data
I0811 16:02:16.896061 26953 net.cpp:100] Creating Layer data
I0811 16:02:16.896097 26953 net.cpp:408] data -> data
I0811 16:02:16.896147 26953 net.cpp:408] data -> label
I0811 16:02:16.896180 26953 data_transformer.cpp:25] Loading mean file from: imagenet_mean.binaryproto
I0811 16:02:16.897573 26963 db_lmdb.cpp:35] Opened lmdb /data/ilsvrc10_train_lmdb
I0811 16:02:16.918926 26953 data_layer.cpp:41] output data size: 512,3,227,227
I0811 16:02:17.685544 26953 net.cpp:150] Setting up data
I0811 16:02:17.685619 26953 net.cpp:157] Top shape: 512 3 227 227 (79148544)
I0811 16:02:17.685642 26953 net.cpp:157] Top shape: 512 (512)
I0811 16:02:17.685648 26953 net.cpp:165] Memory required for data: 316596224
I0811 16:02:17.685668 26953 layer_factory.hpp:77] Creating layer conv1
I0811 16:02:17.685725 26953 net.cpp:100] Creating Layer conv1
I0811 16:02:17.685734 26953 net.cpp:434] conv1 <- data
I0811 16:02:17.685757 26953 net.cpp:408] conv1 -> conv1
I0811 16:02:17.730484 26980 blocking_queue.cpp:50] Waiting for data
I0811 16:02:18.009141 26953 net.cpp:150] Setting up conv1
I0811 16:02:18.009202 26953 net.cpp:157] Top shape: 512 96 55 55 (148684800)
I0811 16:02:18.009210 26953 net.cpp:165] Memory required for data: 911335424
I0811 16:02:18.009239 26953 layer_factory.hpp:77] Creating layer relu1
I0811 16:02:18.009264 26953 net.cpp:100] Creating Layer relu1
I0811 16:02:18.009289 26953 net.cpp:434] relu1 <- conv1
I0811 16:02:18.009305 26953 net.cpp:395] relu1 -> conv1 (in-place)
I0811 16:02:18.009696 26953 net.cpp:150] Setting up relu1
I0811 16:02:18.009717 26953 net.cpp:157] Top shape: 512 96 55 55 (148684800)
I0811 16:02:18.009728 26953 net.cpp:165] Memory required for data: 1506074624
I0811 16:02:18.009738 26953 layer_factory.hpp:77] Creating layer norm1
I0811 16:02:18.009765 26953 net.cpp:100] Creating Layer norm1
I0811 16:02:18.009775 26953 net.cpp:434] norm1 <- conv1
I0811 16:02:18.009789 26953 net.cpp:408] norm1 -> norm1
I0811 16:02:18.010628 26953 net.cpp:150] Setting up norm1
I0811 16:02:18.010663 26953 net.cpp:157] Top shape: 512 96 55 55 (148684800)
I0811 16:02:18.010673 26953 net.cpp:165] Memory required for data: 2100813824
I0811 16:02:18.010684 26953 layer_factory.hpp:77] Creating layer pool1
I0811 16:02:18.010718 26953 net.cpp:100] Creating Layer pool1
I0811 16:02:18.010757 26953 net.cpp:434] pool1 <- norm1
I0811 16:02:18.010772 26953 net.cpp:408] pool1 -> pool1
I0811 16:02:18.010886 26953 net.cpp:150] Setting up pool1
I0811 16:02:18.010905 26953 net.cpp:157] Top shape: 512 96 27 27 (35831808)
I0811 16:02:18.010913 26953 net.cpp:165] Memory required for data: 2244141056
I0811 16:02:18.010922 26953 layer_factory.hpp:77] Creating layer conv2
I0811 16:02:18.010952 26953 net.cpp:100] Creating Layer conv2
I0811 16:02:18.010963 26953 net.cpp:434] conv2 <- pool1
I0811 16:02:18.010982 26953 net.cpp:408] conv2 -> conv2
I0811 16:02:18.033689 26953 net.cpp:150] Setting up conv2
I0811 16:02:18.033723 26953 net.cpp:157] Top shape: 512 256 27 27 (95551488)
I0811 16:02:18.033733 26953 net.cpp:165] Memory required for data: 2626347008
I0811 16:02:18.033756 26953 layer_factory.hpp:77] Creating layer relu2
I0811 16:02:18.033773 26953 net.cpp:100] Creating Layer relu2
I0811 16:02:18.033782 26953 net.cpp:434] relu2 <- conv2
I0811 16:02:18.033794 26953 net.cpp:395] relu2 -> conv2 (in-place)
I0811 16:02:18.034128 26953 net.cpp:150] Setting up relu2
I0811 16:02:18.034147 26953 net.cpp:157] Top shape: 512 256 27 27 (95551488)
I0811 16:02:18.034155 26953 net.cpp:165] Memory required for data: 3008552960
I0811 16:02:18.034164 26953 layer_factory.hpp:77] Creating layer norm2
I0811 16:02:18.034181 26953 net.cpp:100] Creating Layer norm2
I0811 16:02:18.034189 26953 net.cpp:434] norm2 <- conv2
I0811 16:02:18.034201 26953 net.cpp:408] norm2 -> norm2
I0811 16:02:18.034809 26953 net.cpp:150] Setting up norm2
I0811 16:02:18.034834 26953 net.cpp:157] Top shape: 512 256 27 27 (95551488)
I0811 16:02:18.034842 26953 net.cpp:165] Memory required for data: 3390758912
I0811 16:02:18.034853 26953 layer_factory.hpp:77] Creating layer pool2
I0811 16:02:18.034870 26953 net.cpp:100] Creating Layer pool2
I0811 16:02:18.034879 26953 net.cpp:434] pool2 <- norm2
I0811 16:02:18.034896 26953 net.cpp:408] pool2 -> pool2
I0811 16:02:18.034970 26953 net.cpp:150] Setting up pool2
I0811 16:02:18.034983 26953 net.cpp:157] Top shape: 512 256 13 13 (22151168)
I0811 16:02:18.034991 26953 net.cpp:165] Memory required for data: 3479363584
I0811 16:02:18.034998 26953 layer_factory.hpp:77] Creating layer conv3
I0811 16:02:18.035025 26953 net.cpp:100] Creating Layer conv3
I0811 16:02:18.035035 26953 net.cpp:434] conv3 <- pool2
I0811 16:02:18.035048 26953 net.cpp:408] conv3 -> conv3
I0811 16:02:18.080739 26953 net.cpp:150] Setting up conv3
I0811 16:02:18.080767 26953 net.cpp:157] Top shape: 512 384 13 13 (33226752)
I0811 16:02:18.080775 26953 net.cpp:165] Memory required for data: 3612270592
I0811 16:02:18.080793 26953 layer_factory.hpp:77] Creating layer relu3
I0811 16:02:18.080811 26953 net.cpp:100] Creating Layer relu3
I0811 16:02:18.080818 26953 net.cpp:434] relu3 <- conv3
I0811 16:02:18.080828 26953 net.cpp:395] relu3 -> conv3 (in-place)
I0811 16:02:18.081348 26953 net.cpp:150] Setting up relu3
I0811 16:02:18.081372 26953 net.cpp:157] Top shape: 512 384 13 13 (33226752)
I0811 16:02:18.081379 26953 net.cpp:165] Memory required for data: 3745177600
I0811 16:02:18.081387 26953 layer_factory.hpp:77] Creating layer conv4
I0811 16:02:18.081408 26953 net.cpp:100] Creating Layer conv4
I0811 16:02:18.081418 26953 net.cpp:434] conv4 <- conv3
I0811 16:02:18.081432 26953 net.cpp:408] conv4 -> conv4
I0811 16:02:18.111758 26953 net.cpp:150] Setting up conv4
I0811 16:02:18.111783 26953 net.cpp:157] Top shape: 512 384 13 13 (33226752)
I0811 16:02:18.111788 26953 net.cpp:165] Memory required for data: 3878084608
I0811 16:02:18.111799 26953 layer_factory.hpp:77] Creating layer relu4
I0811 16:02:18.111814 26953 net.cpp:100] Creating Layer relu4
I0811 16:02:18.111820 26953 net.cpp:434] relu4 <- conv4
I0811 16:02:18.111829 26953 net.cpp:395] relu4 -> conv4 (in-place)
I0811 16:02:18.112073 26953 net.cpp:150] Setting up relu4
I0811 16:02:18.112088 26953 net.cpp:157] Top shape: 512 384 13 13 (33226752)
I0811 16:02:18.112093 26953 net.cpp:165] Memory required for data: 4010991616
I0811 16:02:18.112107 26953 layer_factory.hpp:77] Creating layer conv5
I0811 16:02:18.112141 26953 net.cpp:100] Creating Layer conv5
I0811 16:02:18.112149 26953 net.cpp:434] conv5 <- conv4
I0811 16:02:18.112159 26953 net.cpp:408] conv5 -> conv5
I0811 16:02:18.132356 26953 net.cpp:150] Setting up conv5
I0811 16:02:18.132377 26953 net.cpp:157] Top shape: 512 256 13 13 (22151168)
I0811 16:02:18.132383 26953 net.cpp:165] Memory required for data: 4099596288
I0811 16:02:18.132397 26953 layer_factory.hpp:77] Creating layer relu5
I0811 16:02:18.132408 26953 net.cpp:100] Creating Layer relu5
I0811 16:02:18.132414 26953 net.cpp:434] relu5 <- conv5
I0811 16:02:18.132426 26953 net.cpp:395] relu5 -> conv5 (in-place)
I0811 16:02:18.132642 26953 net.cpp:150] Setting up relu5
I0811 16:02:18.132658 26953 net.cpp:157] Top shape: 512 256 13 13 (22151168)
I0811 16:02:18.132663 26953 net.cpp:165] Memory required for data: 4188200960
I0811 16:02:18.132668 26953 layer_factory.hpp:77] Creating layer pool5
I0811 16:02:18.132679 26953 net.cpp:100] Creating Layer pool5
I0811 16:02:18.132684 26953 net.cpp:434] pool5 <- conv5
I0811 16:02:18.132693 26953 net.cpp:408] pool5 -> pool5
I0811 16:02:18.132753 26953 net.cpp:150] Setting up pool5
I0811 16:02:18.132762 26953 net.cpp:157] Top shape: 512 256 6 6 (4718592)
I0811 16:02:18.132767 26953 net.cpp:165] Memory required for data: 4207075328
I0811 16:02:18.132772 26953 layer_factory.hpp:77] Creating layer fc6
I0811 16:02:18.132791 26953 net.cpp:100] Creating Layer fc6
I0811 16:02:18.132797 26953 net.cpp:434] fc6 <- pool5
I0811 16:02:18.132807 26953 net.cpp:408] fc6 -> fc6
I0811 16:02:19.303170 26953 net.cpp:150] Setting up fc6
I0811 16:02:19.303210 26953 net.cpp:157] Top shape: 512 4096 (2097152)
I0811 16:02:19.303215 26953 net.cpp:165] Memory required for data: 4215463936
I0811 16:02:19.303227 26953 layer_factory.hpp:77] Creating layer relu6
I0811 16:02:19.303242 26953 net.cpp:100] Creating Layer relu6
I0811 16:02:19.303248 26953 net.cpp:434] relu6 <- fc6
I0811 16:02:19.303256 26953 net.cpp:395] relu6 -> fc6 (in-place)
I0811 16:02:19.303797 26953 net.cpp:150] Setting up relu6
I0811 16:02:19.303809 26953 net.cpp:157] Top shape: 512 4096 (2097152)
I0811 16:02:19.303813 26953 net.cpp:165] Memory required for data: 4223852544
I0811 16:02:19.303818 26953 layer_factory.hpp:77] Creating layer drop6
I0811 16:02:19.303828 26953 net.cpp:100] Creating Layer drop6
I0811 16:02:19.303833 26953 net.cpp:434] drop6 <- fc6
I0811 16:02:19.303841 26953 net.cpp:395] drop6 -> fc6 (in-place)
I0811 16:02:19.303874 26953 net.cpp:150] Setting up drop6
I0811 16:02:19.303882 26953 net.cpp:157] Top shape: 512 4096 (2097152)
I0811 16:02:19.303886 26953 net.cpp:165] Memory required for data: 4232241152
I0811 16:02:19.303891 26953 layer_factory.hpp:77] Creating layer fc7
I0811 16:02:19.303900 26953 net.cpp:100] Creating Layer fc7
I0811 16:02:19.303905 26953 net.cpp:434] fc7 <- fc6
I0811 16:02:19.303921 26953 net.cpp:408] fc7 -> fc7
I0811 16:02:19.768165 26953 net.cpp:150] Setting up fc7
I0811 16:02:19.768203 26953 net.cpp:157] Top shape: 512 4096 (2097152)
I0811 16:02:19.768208 26953 net.cpp:165] Memory required for data: 4240629760
I0811 16:02:19.768225 26953 layer_factory.hpp:77] Creating layer relu7
I0811 16:02:19.768247 26953 net.cpp:100] Creating Layer relu7
I0811 16:02:19.768254 26953 net.cpp:434] relu7 <- fc7
I0811 16:02:19.768265 26953 net.cpp:395] relu7 -> fc7 (in-place)
I0811 16:02:19.768667 26953 net.cpp:150] Setting up relu7
I0811 16:02:19.768677 26953 net.cpp:157] Top shape: 512 4096 (2097152)
I0811 16:02:19.768682 26953 net.cpp:165] Memory required for data: 4249018368
I0811 16:02:19.768687 26953 layer_factory.hpp:77] Creating layer drop7
I0811 16:02:19.768695 26953 net.cpp:100] Creating Layer drop7
I0811 16:02:19.768700 26953 net.cpp:434] drop7 <- fc7
I0811 16:02:19.768707 26953 net.cpp:395] drop7 -> fc7 (in-place)
I0811 16:02:19.768734 26953 net.cpp:150] Setting up drop7
I0811 16:02:19.768743 26953 net.cpp:157] Top shape: 512 4096 (2097152)
I0811 16:02:19.768748 26953 net.cpp:165] Memory required for data: 4257406976
I0811 16:02:19.768760 26953 layer_factory.hpp:77] Creating layer fc8
I0811 16:02:19.768781 26953 net.cpp:100] Creating Layer fc8
I0811 16:02:19.768785 26953 net.cpp:434] fc8 <- fc7
I0811 16:02:19.768795 26953 net.cpp:408] fc8 -> fc8
I0811 16:02:19.879863 26953 net.cpp:150] Setting up fc8
I0811 16:02:19.879887 26953 net.cpp:157] Top shape: 512 1000 (512000)
I0811 16:02:19.879891 26953 net.cpp:165] Memory required for data: 4259454976
I0811 16:02:19.879901 26953 layer_factory.hpp:77] Creating layer loss
I0811 16:02:19.879914 26953 net.cpp:100] Creating Layer loss
I0811 16:02:19.879917 26953 net.cpp:434] loss <- fc8
I0811 16:02:19.879923 26953 net.cpp:434] loss <- label
I0811 16:02:19.879938 26953 net.cpp:408] loss -> loss
I0811 16:02:19.879956 26953 layer_factory.hpp:77] Creating layer loss
…
I0811 16:02:19.894783 26953 solver.cpp:181] Creating test net (#0) specified by net file: train_val.prototxt
I0811 16:02:19.894830 26953 net.cpp:322] The NetState phase (1) differed from the phase (0) specified by a rule in layer data
I0811 16:02:19.895119 26953 net.cpp:58] Initializing net from parameters: 
name: "AlexNet"
state {
  phase: TEST
}
layer {
  name: "data"
  type: "Data"
  top: "data"
  top: "label"
  include {
    phase: TEST
  }
  transform_param {
    mirror: false
    crop_size: 227
    mean_file: "imagenet_mean.binaryproto"
  }
  data_param {
    source: "/data/ilsvrc10_val_lmdb"
    batch_size: 50
    backend: LMDB
  }
}
layer {
  name: "conv1"
  type: "Convolution"
  bottom: "data"
  top: "conv1"
  param {
    lr_mult: 1
    decay_mult: 1
  }
  param {
    lr_mult: 2
    decay_mult: 0
  }
  convolution_param {
    num_output: 96
    kernel_size: 11
    stride: 4
    weight_filler {
      type: "gaussian"
      std: 0.01
    }
    bias_filler {
      type: "constant"
      value: 0
    }
  }
}
layer {
  name: "relu1"
  type: "ReLU"
  bottom: "conv1"
  top: "conv1"
}
layer {
  name: "norm1"
  type: "LRN"
  bottom: "conv1"
  top: "norm1"
  lrn_param {
    local_size: 5
    alpha: 0.0001
    beta: 0.75
  }
}
layer {
  name: "pool1"
  type: "Pooling"
  bottom: "norm1"
  top: "pool1"
  pooling_param {
    pool: MAX
    kernel_size: 3
    stride: 2
  }
}
layer {
  name: "conv2"
  type: "Convolution"
  bottom: "pool1"
  top: "conv2"
  param {
    lr_mult: 1
    decay_mult: 1
  }
  param {
    lr_mult: 2
    decay_mult: 0
  }
  convolution_param {
    num_output: 256
    pad: 2
    kernel_size: 5
    group: 2
    weight_filler {
      type: "gaussian"
      std: 0.01
    }
    bias_filler {
      type: "constant"
      value: 0.1
    }
  }
}
layer {
  name: "relu2"
  type: "ReLU"
  bottom: "conv2"
  top: "conv2"
}
layer {
  name: "norm2"
  type: "LRN"
  bottom: "conv2"
  top: "norm2"
  lrn_param {
    local_size: 5
    alpha: 0.0001
    beta: 0.75
  }
}
layer {
  name: "pool2"
  type: "Pooling"
  bottom: "norm2"
  top: "pool2"
  pooling_param {
    pool: MAX
    kernel_size: 3
    stride: 2
  }
}
layer {
  name: "conv3"
  type: "Convolution"
  bottom: "pool2"
  top: "conv3"
  param {
    lr_mult: 1
    decay_mult: 1
  }
  param {
    lr_mult: 2
    decay_mult: 0
  }
  convolution_param {
    num_output: 384
    pad: 1
    kernel_size: 3
    weight_filler {
      type: "gaussian"
      std: 0.01
    }
    bias_filler {
      type: "constant"
      value: 0
    }
  }
}
layer {
  name: "relu3"
  type: "ReLU"
  bottom: "conv3"
  top: "conv3"
}
layer {
  name: "conv4"
  type: "Convolution"
  bottom: "conv3"
  top: "conv4"
  param {
    lr_mult: 1
    decay_mult: 1
  }
  param {
    lr_mult: 2
    decay_mult: 0
  }
  convolution_param {
    num_output: 384
    pad: 1
    kernel_size: 3
    group: 2
    weight_filler {
      type: "gaussian"
      std: 0.01
    }
    bias_filler {
      type: "constant"
      value: 0.1
    }
  }
}
layer {
  name: "relu4"
  type: "ReLU"
  bottom: "conv4"
  top: "conv4"
}
layer {
  name: "conv5"
  type: "Convolution"
  bottom: "conv4"
  top: "conv5"
  param {
    lr_mult: 1
    decay_mult: 1
  }
  param {
    lr_mult: 2
    decay_mult: 0
  }
  convolution_param {
    num_output: 256
    pad: 1
    kernel_size: 3
    group: 2
    weight_filler {
      type: "gaussian"
      std: 0.01
    }
    bias_filler {
      type: "constant"
      value: 0.1
    }
  }
}
layer {
  name: "relu5"
  type: "ReLU"
  bottom: "conv5"
  top: "conv5"
}
layer {
  name: "pool5"
  type: "Pooling"
  bottom: "conv5"
  top: "pool5"
  pooling_param {
    pool: MAX
    kernel_size: 3
    stride: 2
  }
}
layer {
  name: "fc6"
  type: "InnerProduct"
  bottom: "pool5"
  top: "fc6"
  param {
    lr_mult: 1
    decay_mult: 1
  }
  param {
    lr_mult: 2
    decay_mult: 0
  }
  inner_product_param {
    num_output: 4096
    weight_filler {
      type: "gaussian"
      std: 0.005
    }
    bias_filler {
      type: "constant"
      value: 0.1
    }
  }
}
layer {
  name: "relu6"
  type: "ReLU"
  bottom: "fc6"
  top: "fc6"
}
layer {
  name: "drop6"
  type: "Dropout"
  bottom: "fc6"
  top: "fc6"
  dropout_param {
    dropout_ratio: 0.5
  }
}
layer {
  name: "fc7"
  type: "InnerProduct"
  bottom: "fc6"
  top: "fc7"
  param {
    lr_mult: 1
    decay_mult: 1
  }
  param {
    lr_mult: 2
    decay_mult: 0
  }
  inner_product_param {
    num_output: 4096
    weight_filler {
      type: "gaussian"
      std: 0.005
    }
    bias_filler {
      type: "constant"
      value: 0.1
    }
  }
}
layer {
  name: "relu7"
  type: "ReLU"
  bottom: "fc7"
  top: "fc7"
}
layer {
  name: "drop7"
  type: "Dropout"
  bottom: "fc7"
  top: "fc7"
  dropout_param {
    dropout_ratio: 0.5
  }
}
layer {
  name: "fc8"
  type: "InnerProduct"
  bottom: "fc7"
  top: "fc8"
  param {
    lr_mult: 1
    decay_mult: 1
  }
  param {
    lr_mult: 2
    decay_mult: 0
  }
  inner_product_param {
    num_output: 1000
    weight_filler {
      type: "gaussian"
      std: 0.01
    }
    bias_filler {
      type: "constant"
      value: 0
    }
  }
}
layer {
  name: "accuracy"
  type: "Accuracy"
  bottom: "fc8"
  bottom: "label"
  top: "accuracy"
  include {
    phase: TEST
  }
}
layer {
  name: "loss"
  type: "SoftmaxWithLoss"
  bottom: "fc8"
  bottom: "label"
  top: "loss"
}
I0811 16:02:19.895270 26953 layer_factory.hpp:77] Creating layer data
I0811 16:02:19.895380 26953 net.cpp:100] Creating Layer data
I0811 16:02:19.895390 26953 net.cpp:408] data -> data
I0811 16:02:19.895402 26953 net.cpp:408] data -> label
I0811 16:02:19.895412 26953 data_transformer.cpp:25] Loading mean file from: imagenet_mean.binaryproto
I0811 16:02:19.905288 27020 db_lmdb.cpp:35] Opened lmdb /data/ilsvrc10_val_lmdb
I0811 16:02:19.905832 26953 data_layer.cpp:41] output data size: 50,3,227,227
I0811 16:02:19.970938 26953 net.cpp:150] Setting up data
I0811 16:02:19.970979 26953 net.cpp:157] Top shape: 50 3 227 227 (7729350)
I0811 16:02:19.970986 26953 net.cpp:157] Top shape: 50 (50)
I0811 16:02:19.970990 26953 net.cpp:165] Memory required for data: 30917600
I0811 16:02:19.970999 26953 layer_factory.hpp:77] Creating layer label_data_1_split
I0811 16:02:19.971017 26953 net.cpp:100] Creating Layer label_data_1_split
I0811 16:02:19.971024 26953 net.cpp:434] label_data_1_split <- label
I0811 16:02:19.971035 26953 net.cpp:408] label_data_1_split -> label_data_1_split_0
I0811 16:02:19.971048 26953 net.cpp:408] label_data_1_split -> label_data_1_split_1
I0811 16:02:19.971112 26953 net.cpp:150] Setting up label_data_1_split
I0811 16:02:19.971120 26953 net.cpp:157] Top shape: 50 (50)
I0811 16:02:19.971125 26953 net.cpp:157] Top shape: 50 (50)
I0811 16:02:19.971128 26953 net.cpp:165] Memory required for data: 30918000
I0811 16:02:19.971133 26953 layer_factory.hpp:77] Creating layer conv1
I0811 16:02:19.971150 26953 net.cpp:100] Creating Layer conv1
I0811 16:02:19.971155 26953 net.cpp:434] conv1 <- data
I0811 16:02:19.971163 26953 net.cpp:408] conv1 -> conv1
I0811 16:02:19.978273 26953 net.cpp:150] Setting up conv1
I0811 16:02:19.978292 26953 net.cpp:157] Top shape: 50 96 55 55 (14520000)
I0811 16:02:19.978297 26953 net.cpp:165] Memory required for data: 88998000
I0811 16:02:19.978310 26953 layer_factory.hpp:77] Creating layer relu1
I0811 16:02:19.978322 26953 net.cpp:100] Creating Layer relu1
I0811 16:02:19.978325 26953 net.cpp:434] relu1 <- conv1
I0811 16:02:19.978333 26953 net.cpp:395] relu1 -> conv1 (in-place)
I0811 16:02:19.978509 26953 net.cpp:150] Setting up relu1
I0811 16:02:19.978519 26953 net.cpp:157] Top shape: 50 96 55 55 (14520000)
I0811 16:02:19.978523 26953 net.cpp:165] Memory required for data: 147078000
I0811 16:02:19.978528 26953 layer_factory.hpp:77] Creating layer norm1
I0811 16:02:19.978539 26953 net.cpp:100] Creating Layer norm1
I0811 16:02:19.978544 26953 net.cpp:434] norm1 <- conv1
I0811 16:02:19.978551 26953 net.cpp:408] norm1 -> norm1
I0811 16:02:19.978935 26953 net.cpp:150] Setting up norm1
I0811 16:02:19.978948 26953 net.cpp:157] Top shape: 50 96 55 55 (14520000)
I0811 16:02:19.978953 26953 net.cpp:165] Memory required for data: 205158000
I0811 16:02:19.978957 26953 layer_factory.hpp:77] Creating layer pool1
I0811 16:02:19.978967 26953 net.cpp:100] Creating Layer pool1
I0811 16:02:19.978971 26953 net.cpp:434] pool1 <- norm1
I0811 16:02:19.978978 26953 net.cpp:408] pool1 -> pool1
I0811 16:02:19.979020 26953 net.cpp:150] Setting up pool1
I0811 16:02:19.979027 26953 net.cpp:157] Top shape: 50 96 27 27 (3499200)
I0811 16:02:19.979030 26953 net.cpp:165] Memory required for data: 219154800
I0811 16:02:19.979034 26953 layer_factory.hpp:77] Creating layer conv2
I0811 16:02:19.979046 26953 net.cpp:100] Creating Layer conv2
I0811 16:02:19.979050 26953 net.cpp:434] conv2 <- pool1
I0811 16:02:19.979059 26953 net.cpp:408] conv2 -> conv2
I0811 16:02:19.989246 26953 net.cpp:150] Setting up conv2
I0811 16:02:19.989262 26953 net.cpp:157] Top shape: 50 256 27 27 (9331200)
I0811 16:02:19.989266 26953 net.cpp:165] Memory required for data: 256479600
I0811 16:02:19.989277 26953 layer_factory.hpp:77] Creating layer relu2
I0811 16:02:19.989286 26953 net.cpp:100] Creating Layer relu2
I0811 16:02:19.989291 26953 net.cpp:434] relu2 <- conv2
I0811 16:02:19.989298 26953 net.cpp:395] relu2 -> conv2 (in-place)
I0811 16:02:19.989648 26953 net.cpp:150] Setting up relu2
I0811 16:02:19.989671 26953 net.cpp:157] Top shape: 50 256 27 27 (9331200)
I0811 16:02:19.989675 26953 net.cpp:165] Memory required for data: 293804400
I0811 16:02:19.989681 26953 layer_factory.hpp:77] Creating layer norm2
I0811 16:02:19.989691 26953 net.cpp:100] Creating Layer norm2
I0811 16:02:19.989696 26953 net.cpp:434] norm2 <- conv2
I0811 16:02:19.989702 26953 net.cpp:408] norm2 -> norm2
I0811 16:02:19.989899 26953 net.cpp:150] Setting up norm2
I0811 16:02:19.989909 26953 net.cpp:157] Top shape: 50 256 27 27 (9331200)
I0811 16:02:19.989913 26953 net.cpp:165] Memory required for data: 331129200
I0811 16:02:19.989918 26953 layer_factory.hpp:77] Creating layer pool2
I0811 16:02:19.989926 26953 net.cpp:100] Creating Layer pool2
I0811 16:02:19.989930 26953 net.cpp:434] pool2 <- norm2
I0811 16:02:19.989938 26953 net.cpp:408] pool2 -> pool2
I0811 16:02:19.989977 26953 net.cpp:150] Setting up pool2
I0811 16:02:19.989984 26953 net.cpp:157] Top shape: 50 256 13 13 (2163200)
I0811 16:02:19.989987 26953 net.cpp:165] Memory required for data: 339782000
I0811 16:02:19.989991 26953 layer_factory.hpp:77] Creating layer conv3
I0811 16:02:19.990002 26953 net.cpp:100] Creating Layer conv3
I0811 16:02:19.990006 26953 net.cpp:434] conv3 <- pool2
I0811 16:02:19.990015 26953 net.cpp:408] conv3 -> conv3
I0811 16:02:20.015521 26953 net.cpp:150] Setting up conv3
I0811 16:02:20.015537 26953 net.cpp:157] Top shape: 50 384 13 13 (3244800)
I0811 16:02:20.015542 26953 net.cpp:165] Memory required for data: 352761200
I0811 16:02:20.015552 26953 layer_factory.hpp:77] Creating layer relu3
I0811 16:02:20.015561 26953 net.cpp:100] Creating Layer relu3
I0811 16:02:20.015566 26953 net.cpp:434] relu3 <- conv3
I0811 16:02:20.015573 26953 net.cpp:395] relu3 -> conv3 (in-place)
I0811 16:02:20.016070 26953 net.cpp:150] Setting up relu3
I0811 16:02:20.016083 26953 net.cpp:157] Top shape: 50 384 13 13 (3244800)
I0811 16:02:20.016088 26953 net.cpp:165] Memory required for data: 365740400
I0811 16:02:20.016093 26953 layer_factory.hpp:77] Creating layer conv4
I0811 16:02:20.016106 26953 net.cpp:100] Creating Layer conv4
I0811 16:02:20.016111 26953 net.cpp:434] conv4 <- conv3
I0811 16:02:20.016120 26953 net.cpp:408] conv4 -> conv4
I0811 16:02:20.037758 26953 net.cpp:150] Setting up conv4
I0811 16:02:20.037784 26953 net.cpp:157] Top shape: 50 384 13 13 (3244800)
I0811 16:02:20.037788 26953 net.cpp:165] Memory required for data: 378719600
I0811 16:02:20.037797 26953 layer_factory.hpp:77] Creating layer relu4
I0811 16:02:20.037809 26953 net.cpp:100] Creating Layer relu4
I0811 16:02:20.037814 26953 net.cpp:434] relu4 <- conv4
I0811 16:02:20.037822 26953 net.cpp:395] relu4 -> conv4 (in-place)
I0811 16:02:20.038306 26953 net.cpp:150] Setting up relu4
I0811 16:02:20.038321 26953 net.cpp:157] Top shape: 50 384 13 13 (3244800)
I0811 16:02:20.038324 26953 net.cpp:165] Memory required for data: 391698800
I0811 16:02:20.038329 26953 layer_factory.hpp:77] Creating layer conv5
I0811 16:02:20.038343 26953 net.cpp:100] Creating Layer conv5
I0811 16:02:20.038348 26953 net.cpp:434] conv5 <- conv4
I0811 16:02:20.038357 26953 net.cpp:408] conv5 -> conv5
I0811 16:02:20.081691 26953 net.cpp:150] Setting up conv5
I0811 16:02:20.081720 26953 net.cpp:157] Top shape: 50 256 13 13 (2163200)
I0811 16:02:20.081725 26953 net.cpp:165] Memory required for data: 400351600
I0811 16:02:20.081743 26953 layer_factory.hpp:77] Creating layer relu5
I0811 16:02:20.081756 26953 net.cpp:100] Creating Layer relu5
I0811 16:02:20.081763 26953 net.cpp:434] relu5 <- conv5
I0811 16:02:20.081771 26953 net.cpp:395] relu5 -> conv5 (in-place)
I0811 16:02:20.081946 26953 net.cpp:150] Setting up relu5
I0811 16:02:20.081956 26953 net.cpp:157] Top shape: 50 256 13 13 (2163200)
I0811 16:02:20.081960 26953 net.cpp:165] Memory required for data: 409004400
I0811 16:02:20.081965 26953 layer_factory.hpp:77] Creating layer pool5
I0811 16:02:20.081979 26953 net.cpp:100] Creating Layer pool5
I0811 16:02:20.081982 26953 net.cpp:434] pool5 <- conv5
I0811 16:02:20.081990 26953 net.cpp:408] pool5 -> pool5
I0811 16:02:20.082057 26953 net.cpp:150] Setting up pool5
I0811 16:02:20.082075 26953 net.cpp:157] Top shape: 50 256 6 6 (460800)
I0811 16:02:20.082079 26953 net.cpp:165] Memory required for data: 410847600
I0811 16:02:20.082083 26953 layer_factory.hpp:77] Creating layer fc6
I0811 16:02:20.082094 26953 net.cpp:100] Creating Layer fc6
I0811 16:02:20.082098 26953 net.cpp:434] fc6 <- pool5
I0811 16:02:20.082108 26953 net.cpp:408] fc6 -> fc6
I0811 16:02:21.149547 26953 net.cpp:150] Setting up fc6
I0811 16:02:21.149608 26953 net.cpp:157] Top shape: 50 4096 (204800)
I0811 16:02:21.149615 26953 net.cpp:165] Memory required for data: 411666800
I0811 16:02:21.149631 26953 layer_factory.hpp:77] Creating layer relu6
I0811 16:02:21.149657 26953 net.cpp:100] Creating Layer relu6
I0811 16:02:21.149667 26953 net.cpp:434] relu6 <- fc6
I0811 16:02:21.149675 26953 net.cpp:395] relu6 -> fc6 (in-place)
I0811 16:02:21.150477 26953 net.cpp:150] Setting up relu6
I0811 16:02:21.150506 26953 net.cpp:157] Top shape: 50 4096 (204800)
I0811 16:02:21.150511 26953 net.cpp:165] Memory required for data: 412486000
I0811 16:02:21.150516 26953 layer_factory.hpp:77] Creating layer drop6
I0811 16:02:21.150529 26953 net.cpp:100] Creating Layer drop6
I0811 16:02:21.150534 26953 net.cpp:434] drop6 <- fc6
I0811 16:02:21.150542 26953 net.cpp:395] drop6 -> fc6 (in-place)
I0811 16:02:21.150591 26953 net.cpp:150] Setting up drop6
I0811 16:02:21.150599 26953 net.cpp:157] Top shape: 50 4096 (204800)
I0811 16:02:21.150604 26953 net.cpp:165] Memory required for data: 413305200
I0811 16:02:21.150609 26953 layer_factory.hpp:77] Creating layer fc7
I0811 16:02:21.150621 26953 net.cpp:100] Creating Layer fc7
I0811 16:02:21.150626 26953 net.cpp:434] fc7 <- fc6
I0811 16:02:21.150635 26953 net.cpp:408] fc7 -> fc7
I0811 16:02:21.610841 26953 net.cpp:150] Setting up fc7
I0811 16:02:21.610903 26953 net.cpp:157] Top shape: 50 4096 (204800)
I0811 16:02:21.610908 26953 net.cpp:165] Memory required for data: 414124400
I0811 16:02:21.610930 26953 layer_factory.hpp:77] Creating layer relu7
I0811 16:02:21.610954 26953 net.cpp:100] Creating Layer relu7
I0811 16:02:21.610963 26953 net.cpp:434] relu7 <- fc7
I0811 16:02:21.610975 26953 net.cpp:395] relu7 -> fc7 (in-place)
I0811 16:02:21.611426 26953 net.cpp:150] Setting up relu7
I0811 16:02:21.611451 26953 net.cpp:157] Top shape: 50 4096 (204800)
I0811 16:02:21.611456 26953 net.cpp:165] Memory required for data: 414943600
I0811 16:02:21.611461 26953 layer_factory.hpp:77] Creating layer drop7
I0811 16:02:21.611472 26953 net.cpp:100] Creating Layer drop7
I0811 16:02:21.611479 26953 net.cpp:434] drop7 <- fc7
I0811 16:02:21.611486 26953 net.cpp:395] drop7 -> fc7 (in-place)
I0811 16:02:21.611536 26953 net.cpp:150] Setting up drop7
I0811 16:02:21.611543 26953 net.cpp:157] Top shape: 50 4096 (204800)
I0811 16:02:21.611547 26953 net.cpp:165] Memory required for data: 415762800
I0811 16:02:21.611552 26953 layer_factory.hpp:77] Creating layer fc8
I0811 16:02:21.611564 26953 net.cpp:100] Creating Layer fc8
I0811 16:02:21.611569 26953 net.cpp:434] fc8 <- fc7
I0811 16:02:21.611578 26953 net.cpp:408] fc8 -> fc8
I0811 16:02:21.726784 26953 net.cpp:150] Setting up fc8
I0811 16:02:21.726824 26953 net.cpp:157] Top shape: 50 1000 (50000)
I0811 16:02:21.726829 26953 net.cpp:165] Memory required for data: 415962800
I0811 16:02:21.726840 26953 layer_factory.hpp:77] Creating layer fc8_fc8_0_split
I0811 16:02:21.726851 26953 net.cpp:100] Creating Layer fc8_fc8_0_split
I0811 16:02:21.726858 26953 net.cpp:434] fc8_fc8_0_split <- fc8
I0811 16:02:21.726866 26953 net.cpp:408] fc8_fc8_0_split -> fc8_fc8_0_split_0
I0811 16:02:21.726877 26953 net.cpp:408] fc8_fc8_0_split -> fc8_fc8_0_split_1
I0811 16:02:21.726929 26953 net.cpp:150] Setting up fc8_fc8_0_split
I0811 16:02:21.726938 26953 net.cpp:157] Top shape: 50 1000 (50000)
I0811 16:02:21.726943 26953 net.cpp:157] Top shape: 50 1000 (50000)
I0811 16:02:21.726946 26953 net.cpp:165] Memory required for data: 416362800
I0811 16:02:21.726951 26953 layer_factory.hpp:77] Creating layer accuracy
I0811 16:02:21.726985 26953 net.cpp:100] Creating Layer accuracy
I0811 16:02:21.727001 26953 net.cpp:434] accuracy <- fc8_fc8_0_split_0
I0811 16:02:21.727007 26953 net.cpp:434] accuracy <- label_data_1_split_0
I0811 16:02:21.727015 26953 net.cpp:408] accuracy -> accuracy
…
